loan_fnn_model_no_feature_engineering.pth (torch, 17192 bytes, 7 tensors)

fc1.weight f4 [64, 11]
-1.3499572e-18 -8.3277096e-19 3.6793803e-19 2.600242e-21 1.6264555e-20 -3.265342e-19 -6.8285265e-20 -1.2586517e-19
6.4329054e-20 1.1389514e-19 2.6961721e-20 -0.029090121 -0.03702871 0.0019791084 -0.002159887 0.003641325
0.004597397 0.004715081 -0.02632716 0.024008699 0.00018904306 0.024418712 -0.09909651 -0.14245008
-0.0063189347 -0.008649297 0.043666333 -0.025566446 0.047174193 -0.11149366 0.09031327 -0.004176337
0.14326721 0.2285704 -0.098863125 -0.0031556683 0.021511473 -0.006516006 0.127655 -0.014325265
0.01064339 -0.041635063 -0.0043391655 0.0016963455 0.0044710035 -0.044224355 0.006116022 -0.024870783
0.061896946 -0.19267423 0.056525763 0.041904908 -0.039175563 0.060699675 0.14064522 0.06263983
0.060995203 0.001975287 0.01111506 -0.018241676 0.07369227 -0.021744007 -0.0030976965 0.011083645
-0.019903142 -0.009854844 1.7859795e-08 3.326454e-08 -3.2285925e-08 -1.5955584e-09 -7.7996043e-10 -2.2630157e-08
7.1967605e-09 -1.05846425e-08 4.4189647e-09 -2.7137643e-08 9.695693e-10 0.030805545 0.028284729 0.000788202
0.0063205548 -0.007692833 0.03398466 -0.009881997 -0.0014810011 0.0037567113 -0.009280404 -0.0048384042
-0.06175986 0.19176202 -0.0017185498 0.009553908 -0.04793001 -0.02873921 -0.07911211 -0.010938029
0.03794785 -0.074449204 -0.044165283 0.066612124 -0.010973893 0.003687494 -0.033764843 0.08039928
-0.29768473 0.074939296 0.08240003 -0.047146514 0.077992685 0.09216469 -0.15372232 -0.038932495
0.00463824 -0.007481953 0.038892876 0.08122189 0.06774514 -0.013547831 0.038695443 0.045949962
0.07966856 0.09801823 0.0965832 0.002802751 0.016476806 -0.03018213 0.11722031 -0.034890343
-0.005188132 0.019032752 -0.031740155 -0.01543539 -0.11429997 0.18611991 -0.009831475 0.0063685523
-0.0513751 -0.041301943 -0.07572099 -0.013500239 0.02821433 -0.06547822 -0.05515808 0.056706917
-0.009253697 0.002991122 -0.028802592 0.06797473 -0.2521839 0.06372453 0.069686145 -0.039726797
0.06611764 0.078343116 1.1774899e-05 -8.323622e-06 -2.1467845e-06 4.813179e-07 -1.0177566e-06 -3.035934e-05
6.9577726e-07 5.5131386e-07 1.27227e-07 -5.3944774e-07 5.3079526e-07 -0.12644404 -0.05203633 0.006367361
-0.0068931812 0.031802826 0.05328376 0.05612092 -0.03677134 0.0407425 0.040587302 0.07591719
0.045701366 0.043647926 0.0009879237 0.0085904 -0.0124624595 0.052301545 -0.015299777 -0.0019203065
0.0073122415 -0.014287816 -0.0071362625 1.454761e-19 -2.4049207e-18 2.3032273e-18 -2.866703e-19 -7.849889e-20
-1.1199458e-18 1.5179103e-18 7.1114584e-19 4.774999e-19 -2.1611907e-18 1.3819495e-18 -3.2673797e-10 -2.8043758e-09
3.8440048e-10 -8.026761e-11 6.0182456e-11 -1.303975e-09 6.064022e-10 3.462194e-12 2.4259925e-10 -5.413087e-10
-2.354058e-10 -0.01891649 -0.06611723 0.0025794406 -0.024676824 0.057496477 -0.09579515 0.08103594
-0.012463211 0.014530058 0.047451787 0.12748137 0.14756915 0.12662351 0.006912926 0.020990048
-0.038662825 0.14973974 -0.04468451 -0.009617626 0.024880191 -0.038128953 -0.0154897915 -0.07416925
-0.09275566 0.0045451573 -0.0045580817 0.008670084 0.014013276 0.018668624 -0.06763961 0.059973154
-0.00085351197 0.06276995 1.4661653e-29 -4.376699e-28 -1.2233081e-28 8.682888e-31 -3.0156795e-29 -1.3985599e-28
-1.532934e-28 5.5892533e-29 -1.5813258e-28 6.6024815e-29 5.352289e-29 0.00010510787 -9.705126e-05 3.6564958e-05
00000000: f137 c7a1 65ca 75a1 3931 d920 ff77 441d
00000010: 489d 991e 74c0 c0a0 e93b a19f 6a98 14a0
00000020: 87e4 971f b276 0620 71a5 fe1e 684e eebc
00000030: 6bab 17bd eeb3 013b e48c 0dbb 4ca3 6e3b
00000040: c3a5 963b f780 9a3b 0eac d7bc e4ad c43c
00000050: dc39 4639 c009 c83c 1cf3 cabd 6fde 11be
00000060: 110f cfbb c8b5 0dbc 78db 323d b970 d1bc
00000070: ba39 413d ca56 e4bd 2af6 b83d a7d9 88bb
00000080: a4b4 123e 5c0e 6a3e c078 cabd 54cf 4ebb
00000090: d438 b03c 3884 d5bb feb7 023e 84b4 6abc
000000a0: 9d61 2e3c 8789 2abd 8f2f 8ebb e957 de3a
000000b0: 7f81 923b 9924 35bd e968 c83b d0bd cbbc
000000c0: a787 7d3d 654c 45be 8f87 673d 7ba4 2b3d
000000d0: 8e76 20bd 39a0 783d 4d05 103e 5049 803d
000000e0: 1bd6 793d d173 013b f11b 363c 916f 95bc
000000f0: f9eb 963d 7d20 b2bc b902 4bbb 2d98 353c
00000100: ea0b a3bc 3676 21bc 1b6a 9932 c0de 0e33
00000110: c0aa 0ab3 b84a dbb0 d664 56b0 3e64 c2b2
00000120: 6047 f731 c0d7 35b2 a0d5 9731 4f1c e9b2
00000130: b041 8530 e95b fc3c 60b5 e73c 579f 4e3a
00000140: a81c cf3b 2914 fcbb 8033 0b3d 19e8 21bc
00000150: 271e c2ba 2833 763b d60c 18bc 7a8b 9ebb
00000160: e8f7 7cbd 435d 443e f640 e1ba ff87 1c3c
00000170: 4252 44bd 7e6e ebbc 8805 a2bd 6b35 33bc
00000180: 346f 1b3d d378 98bd a8e6 34bd f06b 883d
00000190: d8cb 33bc e2a9 713b 014d 0abd 61a8 a43d
000001a0: 226a 98be c679 993d 59c1 a83d b41c 41bd
000001b0: a1ba 9f3d d7c0 bc3d 6269 1dbe ae77 1fbd
000001c0: 61fc 973b 2c2b f5bb 234e 1f3d aa57 a63d
000001d0: f7bd 8a3d b9f7 5dbc 1d7f 1e3d 0736 3c3d
000001e0: 4529 a33d c8bd c83d 6acd c53d 5cae 373b
000001f0: 5efa 863c 8440 f7bc 3411 f03d 2de9 0ebd
00000200: 3501 aabb 93ea 9b3c f701 02bd b8e4 7cbc
00000210: 1a16 eabd 3896 3e3e 3214 21bc 4aaf d03b
00000220: b26e 52bd 3a2c 29bd 9b13 9bbd 1b30 5dbc
00000230: bd21 e73c 7219 86bd 70ed 61bd 8345 683d
00000240: d19c 17bc b306 443b 6af3 ebbc 5636 8b3d
00000250: 401e 81be 0282 823d 9cb7 8e3d 91b8 22bd
00000260: af68 873d 5b72 a03d ce8c 4537 afa5 0bb7
00000270: 7a11 10b6 ea33 0135 da99 88b5 30ac feb7
00000280: 73c5 3a35 00fe 1335 e49b 0834 91ce 10b5
00000290: f97b 0e35 8c7a 01be 0c24 55bd 4ca5 d03b
000002a0: 32e0 e1bb ae43 023d 1240 5a3d 0ddf 653d
000002b0: 8b9d 16bd 9ce1 263d df3e 263d 797a 9b3d
000002c0: 5b31 3b3d 2bc8 323d 387d 813a c0be 0c3c
000002d0: 582f 4cbc 253a 563d eaab 7abc cbb2 fbba
000002e0: 879b ef3b 7217 6abc 4fd7 e9bb 74bf 2b20
000002f0: ab73 31a2 bcf2 2922 6438 a9a0 ab59 b99f
00000300: 5b46 a5a1 0801 e021 a9e4 5121 dfee 0c21
00000310: bd77 1fa2 93f0 cb21 48a0 b3af 1ab7 40b1
00000320: 8f53 d32f a682 b0ae b657 842e 8b37 b3b0
00000330: c3af 2630 58a1 732c cf5e 852f 37cb 14b0
00000340: 6c6a 81af c1f6 9abc 7868 87bd d50b 293b
00000350: 0d27 cabc 6d81 6b3d 3f30 c4bd 2cf6 a53d
00000360: 7f32 4cbc 7b0f 6e3c ce5c 423d 7a8a 023e
00000370: 5e1c 173e 98a9 013e d485 e23b 52f3 ab3c
00000380: e95c 1ebd 6055 193e 1b07 37bd 3f93 1dbc
00000390: 8bd1 cb3c 1b2d 1cbd e5c8 7dbc 0ce6 97bd
000003a0: aef6 bdbd 8bef 943b f65b 95bb f80c 0e3c
000003b0: f197 653c f1ee 983c a386 8abd 69a6 753d
000003c0: 38be 5fba 888d 803d d4af 940f 00b4 0a92
000003d0: 9e12 1b91 4ee3 8c0d c2e9 1890 dd49 3191
000003e0: 8d52 4291 54b4 8d10 f574 4891 8e64 a710
000003f0: 57b2 8710 5c6d dc38 0088 cbb8 535d 1938

fc1.bias f4 [64]
-1.531096e-18 0.033090923 0.18038225 -0.13648029 0.12334687 0.012323597 -8.344428e-08 0.004589711
0.025106298 0.103912726 0.14593089 0.020346599 0.02498164 0.08807075 -2.1697555e-05 0.1296334
0.0085515985 -7.603063e-18 -2.1955066e-10 0.19532253 0.016344914 0.08441912 -3.8708248e-28 -9.832799e-05
0.058624387 -5.246e-15 0.08048831 0.121931516 -0.09014058 0.1074563 0.17345877 -1.1060046e-15
0.059607618 0.06823308 0.029865913 0.0025798546 -1.9668671e-32 -8.085797e-18 -0.028079825 -6.686075e-14
0.16502789 0.02160223 0.10200734 0.025851466 -0.21752366 0.09323948 -7.2293374e-14 -0.085369736
-2.3918185e-11 -1.1349888e-13 0.099944346 0.081612825 0.01678219 -0.11846336 0.053456564 -2.1235273e-06
-4.013312e-06 -9.083457e-12 0.046306476 0.041345347 -0.00018599854 0.038566027 -9.421353e-13 0.12115499
00000000: 2cf3 e1a1 598a 073d 20b6 383e 7dc1 0bbe
00000010: 499d fc3d eae8 493c fa31 b3b3 4965 963b
00000020: b9ab cd3c 32d0 d43d e86e 153e e9ad a63c
00000030: 4ca6 cc3c 705e b43d 2503 b6b7 9ebe 043e
00000040: 011c 0c3c 7340 0ca3 0466 71af a102 483e
00000050: c5e5 853c eee3 ac3d b957 f591 7035 ceb8
00000060: 2020 703d cf01 bda7 0ed7 a43d 3bb7 f93d
00000070: a09b b8bd 0c12 dc3d 2d9f 313e 5e64 9fa6
00000080: 1e27 743d c9bd 8b3d 5ca9 f43c c712 293b
00000090: 4c40 cc8a 1928 15a3 a907 e6bc 998e 96a9
000000a0: 12fd 283e 29f7 b03c 39e9 d03d 74c6 d33c
000000b0: 86be 5ebe 57f4 be3d 4bca a2a9 54d6 aebd
000000c0: f762 d2ad a693 ffa9 9faf cc3d a024 a73d
000000d0: ce7a 893c eb9c f2bd 45f5 5a3d ec81 0eb6
000000e0: 16aa 86b6 41cc 1fad dcab 3d3d bd59 293d
000000f0: 9a08 43b9 69f7 1d3d 0098 84ab 1b20 f83d

fc2.weight f4 [32, 64]
1.0791241e-19 0.016945835 0.07950562 -0.038426153 0.06595509 -0.0070177186 1.0494241e-08 -0.002508553
-0.043620765 0.07440427 0.05397629 -0.011813595 -0.050169148 0.06306346 9.2913155e-07 0.049625862
-0.004576657 -6.542966e-19 -7.0791234e-11 0.064505264 -0.012098621 0.044727206 3.5453415e-29 1.3913139e-05
0.03067379 9.2974294e-17 0.05748919 0.087449774 -0.025456194 0.03507488 0.06398822 -6.44395e-17
0.031270918 0.035958134 -0.02541284 0.00080012786 8.257797e-31 5.222009e-20 -0.008752765 4.4687145e-16
0.054487996 -0.01360695 0.053561486 -0.033734504 -0.05872848 0.06680425 1.1087542e-15 -0.024428204
-1.9609795e-11 -1.2498505e-13 0.053392846 0.030030608 -0.03013906 -0.033312157 0.019130986 7.2090295e-08
6.304995e-07 1.3793776e-21 -0.07193289 0.021790206 7.659998e-06 -0.04792399 -3.645976e-20 0.04591285
-1.5692954e-22 -0.0060445173 -0.026493736 0.078234926 -0.03338167 0.03401461 -3.5404348e-09 0.016222153
0.0439221 -0.05643781 -0.03513952 0.052759614 0.041623484 -0.04795793 -3.519064e-07 -0.026381548
0.024652038 -6.0311793e-20 -2.2119336e-10 -0.023113329 0.07091328 -0.01627164 -4.195861e-29 -1.8234303e-05
-0.011191229 -3.0807594e-17 -0.043776505 -0.06626457 0.05695014 -0.011358851 -0.042493977 -3.269483e-19
-0.011412389 -0.013145765 0.08066617 -0.00066756504 -1.6039489e-30 -1.5671135e-20 0.017033402 1.1313782e-15
-0.019255484 0.058673944 -0.019735403 0.025204835 0.12096158 -0.050762627 1.5279989e-15 0.051737808
-2.9135774e-11 -5.6263045e-15 -0.027137881 -0.018841846 0.030010484 0.07480316 -0.011647937 3.0153075e-08
-3.1331626e-06 -6.8064666e-22 0.071371086 -0.011253289 -1.0126477e-05 0.034837686 -2.8139236e-21 -0.028678417
1.9940154e-19 0.015110605 0.07368792 -0.03441115 0.06272654 -0.006847841 1.7870402e-08 -0.0020472326
-0.04315799 0.07178647 0.050148375 -0.011966388 -0.04881058 0.060668383 1.8527121e-06 0.04537895
-0.004247155 4.1741705e-20 5.50656e-10 0.060213048 -0.012515232 0.039581873 -2.8374022e-31 2.177523e-05
0.02683377 -2.290523e-17 0.05520205 0.08459657 -0.021541568 0.032582983 0.060287155 6.9823215e-17
0.027364591 0.031542223 -0.026024684 0.00089993904 1.1090847e-30 1.5924162e-20 -0.0058755786 -3.660462e-16
0.050533056 -0.01387147 0.04774625 -0.032581933 -0.05468776 0.06433943 -2.3563101e-15 -0.020627063
4.88571e-12 -7.19766e-14 0.050588854 0.026911294 -0.029585624 -0.029262384 0.017022273 1.4432649e-08
8.714765e-06 1.8917112e-16 -0.07248997 0.020521421 7.650349e-06 -0.04650648 -3.0751748e-20 0.04212129
1.8892836e-19 0.019164214 0.083557196 -0.036511607 0.069021635 -0.0066900747 1.715776e-08 -0.0019262511
-0.042677548 0.07695441 0.06080319 -0.0117731355 -0.048389062 0.06521497 2.60974e-07 0.055636637
-0.0040844963 -8.922428e-19 1.8967938e-10 0.06901024 -0.012779582 0.047868602 -1.4621618e-29 7.0429687e-06
0.033482306 -1.3509413e-16 0.059454102 0.09046447 -0.023382006 0.03868074 0.071432225 1.3850201e-16
0.03410037 0.038852826 -0.025691893 0.0012902077 5.2155664e-31 -1.0789909e-21 -0.006758367 -1.6366665e-15
0.058675792 -0.013680576 0.056698494 -0.031723477 -0.057197794 0.06909079 5.080484e-16 -0.022333791
-1.6625656e-11 -7.343176e-14 0.056055546 0.035369687 -0.029387213 -0.031326253 0.023507817 1.0421762e-07
4.7030458e-06 1.0241428e-16 -0.07103561 0.023319578 1.1711658e-05 -0.044933125 1.1708059e-20 0.052186612
00000000: 0dcd fe1f fed1 8a3c d8d3 a23d be64 1dbd
00000010: 7613 873d e4f4 e5bb 294a 3432 8966 24bb
00000020: b0ab 32bd 4461 983d 3e16 5d3d cf8d 41bc
00000030: 2a7e 4dbd 6a27 813d 6f69 7935 7d44 4b3d
00000040: c8f7 95bb 411d 41a1 ecab 9bae 561b 843d
00000050: 4b39 46bc e033 373d 2ac5 3310 7a6c 6937
00000060: 9a47 fb3c 5662 d624 c979 6b3d de18 b33d
00000070: 8289 d0bc adaa 0f3d 420c 833d 5e96 94a4
00000080: ef15 003d d648 133d 972e d0bc acbf 513a
00000090: 8cfd 850d 379a 761f c267 0fbc 4bcd 0026
000000a0: ce2e 5f3d afef 5ebc 4a63 5b3d 312d 0abd
000000b0: 468d 70bd abd0 883d cfc9 9f26 a81d c8bc
000000c0: 557d acad 7db8 0caa 75b2 5a3d c002 f63c
000000d0: 31e6 f6bc 5472 08bd 96b8 9c3c 0fd0 9a33
000000e0: 993f 2935 1672 d01c 8d51 93bd 6081 b23c
000000f0: 7183 0037 f24b 44bd 252d 2c9f 1d0f 3c3d
00000100: 57b7 3d9b 1611 c6bb 6409 d9bc a239 a03d
00000110: 38bb 08bd e752 0b3d fd4b 73b1 52e4 843c
00000120: a9e7 333d 552b 67bd 75ee 0fbd 771a 583d
00000130: 637d 2a3d 896f 44bd a6ed bcb4 1e1e d8bc
00000140: 12f3 c93c 3e68 8e9f 6534 73af 2a58 bdbc
00000150: fb3a 913d 1a4c 85bc 64c1 5490 def5 98b7
00000160: 6b5b 37bc 3013 0ea4 fe4e 33bd b8b5 87bd
00000170: 8d44 693d 791a 3abc 2a0e 2ebd 08ff c0a0
00000180: 07fb 3abc 5661 57bc 4e34 a53d 88ff 2eba
00000190: b720 028e 7b02 949e a289 8b3c 7d0c a326
000001a0: adbd 9dbc 1754 703d 24ac a1bc 5f7a ce3c
000001b0: b4ba f73d 79ec 4fbd 3635 dc26 06eb 533d
000001c0: f723 00ae 80b5 caa7 4350 debc 375a 9abc
000001d0: 8cd8 f53c 6632 993d fdd6 3ebc a881 0133
000001e0: 5343 52b6 7cb6 4d9c 012b 923d b75f 38bc
000001f0: e3e4 29b7 f6b1 0e3d 339d 549d 00ef eabc
00000200: 6b69 6b20 7992 773c b1e9 963d b5f2 0cbd
00000210: c676 803d db63 e0bb 6e81 9932 dd2a 06bb
00000220: 6fc6 30bd c904 933d 6268 4d3d ab0e 44bc
00000230: 9aed 47bd 697f 783d b4aa f835 47df 393d
00000240: b82b 8bbb a01e 451f f95c 1730 f5a1 763d
00000250: b00c 4dbc 9a20 223d 6e28 b88c f3a9 b637
00000260: 7fd2 db3c 7243 d3a3 8b1b 623d f740 ad3d
00000270: f177 b0bc bc75 053d aaef 763d 5a00 a124
00000280: b52b e03c 6b32 013d b831 d5bc e3e9 6b3a
00000290: 93f5 b30d 4366 961e ed87 c0bb e202 d3a5
000002a0: c0fb 4e3d 2945 63bc 9291 433d a274 05bd
000002b0: 4600 60bd 64c4 833d 40ca 29a7 16fa a8bc
000002c0: 90e6 ab2c af13 a2a9 4236 4f3d 1375 dc3c
000002d0: 8d5d f2bc abb7 efbc 4b72 8b3c 76f3 7732
000002e0: a135 1237 7619 5a25 9f75 94bd 8a1c a83c
000002f0: 005a 0037 947d 3ebd 9538 119f 6087 2c3d
00000300: 180c 5f20 45fe 9c3c 0920 ab3d 328d 15bd
00000310: 375b 8d3d 6a38 dbbb 5062 9332 437a fcba
00000320: a7ce 2ebd 469a 9d3d c40c 793d 1ce4 40bc
00000330: 9c33 46bd 6d8f 853d fe1b 8c34 3ee3 633d
00000340: 3dd7 85bb fbab 83a1 008e 502f 3e55 8d3d
00000350: 7461 51bc de11 443d e447 948f a452 ec36
00000360: be24 093d c0c0 1ba5 2586 733d 7045 b93d
00000370: 9f8b bfbc b26f 1e3d 0f4b 923d 94ae 1f25
00000380: d4ac 0b3d 2424 1f3d ce77 d2bc 301c a93a
00000390: 3b41 290d 700d a39c 4b75 ddbb 56de eba6
000003a0: 0756 703d 7f24 60bc ae3c 683d 7af0 01bd
000003b0: 3c48 6abd 797f 8d3d 5b6f 1226 5bf5 b6bc
000003c0: a63d 92ad 875a a5a9 809a 653d cedf 103d
000003d0: 74bd f0bc f54f 00bd 7793 c03c 3ece df33
000003e0: dbce 9d36 b826 ec24 1e7b 91bd b308 bf3c
000003f0: 307d 4437 cc0b 38bd b328 5d1e a1c1 553d

fc2.bias f4 [32]
0.09619837 0.019186405 0.09444516 0.10173614 0.09600375 0.09380392 0.010393972 0.0145927025
0.09875164 0.09228154 0.02113711 0.08882304 0.010935992 0.015077075 0.09625291 0.013030958
0.09492077 0.019762423 0.008059128 0.009783153 0.015155232 0.09601077 0.09492593 0.0945443
0.016050542 0.09731167 0.09227987 0.02524198 0.01249911 0.012897871 0.09516571 0.09719343
00000000: a703 c53d cf2c 9d3c 776c c13d 0a5b d03d
00000010: 9d9d c43d 451c c03d 7a4b 2a3c 3b16 6f3c
00000020: 4d3e ca3d 1bfe bc3d bc27 ad3c dbe8 b53d
00000030: e02c 333c d605 773c 3f20 c53d cd7f 553c
00000040: d265 c23d cee4 a13c 6f0a 043c 8549 203c
00000050: a64d 783c 4ba1 c43d 8768 c23d 71a0 c13d
00000060: 6d7c 833c 574b c73d 3afd bc3d 45c8 ce3c
00000070: 11c9 4c3c 9851 533c 3de6 c23d 590d c73d

fc3.weight f4 [16, 32]
0.06486696 -0.029689295 0.060103294 0.06894622 0.061590467 0.062519826 -0.028350573 -0.029477222
0.06293255 0.057972386 -0.022043854 0.05492967 -0.028580384 -0.030027512 0.06117263 -0.026118677
0.06270126 -0.027528329 -0.027227711 -0.028207112 -0.028862882 0.059852548 0.059543774 0.060980797
-0.028624717 0.060710184 0.060218256 -0.029191455 -0.02806671 -0.026903916 0.064635664 0.06462252
0.094111264 -0.04316283 0.08827997 0.098979056 0.08997539 0.09100497 -0.04170972 -0.0431158
0.0921928 0.08514507 -0.031226821 0.08184427 -0.042203736 -0.043326985 0.09054512 -0.038350366
0.09194857 -0.039876778 -0.039855797 -0.041683465 -0.042028222 0.08860215 0.08729169 0.08979427
-0.041612666 0.08964403 0.08886884 -0.04292148 -0.040878933 -0.040356167 0.09400376 0.09334401
-0.06460964 0.12949663 -0.05959331 -0.067526616 -0.06188868 -0.0604871 0.12268644 0.13211828
-0.064696476 -0.06200417 0.087454855 -0.057696313 0.12608965 0.12786134 -0.061197363 0.11909267
-0.061612967 0.12625642 0.11884806 0.1257396 0.12657213 -0.061794408 -0.06417606 -0.06202994
0.12458454 -0.06353614 -0.061173335 0.13143855 0.12450033 0.12681802 -0.060413208 -0.064325266
0.09406993 -0.043155033 0.08823697 0.098928064 0.089926235 0.09096233 -0.041718505 -0.04308537
0.09214784 0.08510224 -0.031236656 0.081803225 -0.04220548 -0.043312974 0.090500385 -0.038359594
0.091898404 -0.03986643 -0.03985318 -0.041650333 -0.04200327 0.08855955 0.08724898 0.08975001
-0.041591305 0.08960112 0.08882797 -0.04288489 -0.040838405 -0.04031669 0.093953915 0.093301184
-0.010473938 0.019410437 -0.009008938 -0.011111092 -0.009173804 -0.008124141 0.016555637 0.018607825
-0.0097273085 -0.010309239 0.013882426 -0.008832784 0.017291976 0.018876195 -0.00814979 0.017095128
-0.008204142 0.018171085 0.015912682 0.01698143 0.018411553 -0.008990966 -0.010583232 -0.00897728
0.018057829 -0.009951565 -0.009250297 0.01852415 0.018055737 0.0167872 -0.009169453 -0.010616626
0.09856032 -0.045174327 0.09263123 0.103543065 0.09434072 0.09535717 -0.043739296 -0.04518757
0.09667665 0.089336425 -0.032615744 0.08600531 -0.044252075 -0.045331724 0.09507692 -0.040242944
0.0964014 -0.04176757 -0.041766357 -0.043762993 -0.043991894 0.09303103 0.09156015 0.09421503
-0.043588694 0.09412237 0.09326386 -0.04500473 -0.042803418 -0.04240567 0.098492585 0.0977308
0.10176703 -0.0466234 0.09577779 0.10683825 0.09750076 0.09849845 -0.04515282 -0.046672814
0.09991618 0.0923676 -0.03367 0.08901594 -0.045723297 -0.046859886 0.09835212 -0.041576367
0.09961757 -0.043087248 -0.043163903 -0.0452545 -0.045504205 0.096230954 0.09464631 0.0974083
-0.045031466 0.09736063 0.096434325 -0.046437684 -0.044242438 -0.043828387 0.10173691 0.10089741
-0.077077314 0.15397465 -0.07165649 -0.08037404 -0.07374976 -0.07292179 0.14650533 0.15776816
-0.07767407 -0.073676616 0.102984674 -0.06938507 0.15057945 0.15271698 -0.07384119 0.142527
-0.07407781 0.15120411 0.1431926 0.15071522 0.15101004 -0.07410114 -0.0765394 -0.074071504
0.1485999 -0.07619078 -0.07357799 0.15645367 0.14866622 0.15210365 -0.0722479 -0.07638196
00000000: f8d8 843d f736 f3bc df2e 763d ad33 8d3d
00000010: 4946 7c3d 650a 803d 763f e8bc 377a f1bc
00000020: c8e2 803d 7474 6d3d 5095 b4bc effd 603d
00000030: 6921 eabc 42fc f5bc 2790 7a3d d6f6 d5bc
00000040: 8569 803d 1783 e1bc a60c dfbc 9a12 e7bc
00000050: da71 ecbc f227 753d 2ce4 733d 00c7 793d
00000060: 627e eabc 3eab 783d 6ba7 763d eb22 efbc
00000070: 28ec e5bc 9a65 dcbc b45f 843d d058 843d
00000080: 68bd c03d 82cb 30bd 21cc b43d 88b5 ca3d
00000090: 0445 b83d d060 ba3d d0d7 2abd 319a 30bd
000000a0: 94cf bc3d 8a60 ae3d 64cf ffbc f89d a73d
000000b0: d3dd 2cbd a377 31bd b86f b93d 4615 1dbd
000000c0: 884f bc3d d555 23bd d53f 23bd 48bc 2abd
000000d0: c925 2cbd 0b75 b53d fcc5 b23d 0fe6 b73d
000000e0: 0b72 2abd 4a97 b73d de00 b63d 6fce 2fbd
000000f0: ab70 27bd 824c 25bd 0b85 c03d 252b bf3d
00000100: 0f52 84bd c49a 043e 1d18 74bd 654b 8abd
00000110: fc7e 7dbd 52c1 77bd 0743 fb3d 044a 073e
00000120: 967f 84bd 16f8 7dbd 881b b33d f852 6cbd
00000130: a51d 013e 15ee 023e 16aa 7abd dce6 f33d
00000140: e15d 7cbd 5d49 013e 9d66 f33d e2c1 003e
00000150: 209c 013e 221c 7dbd bd6e 83bd 1b13 7ebd
00000160: 2e26 ff3d 3c1f 82bd e490 7abd d497 063e
00000170: 07fa fe3d 95dc 013e d773 77bd f7bc 83bd
00000180: bca7 c03d 55c3 30bd 96b5 b43d cc9a ca3d
00000190: 3f2b b83d 754a ba3d 06e1 2abd 497a 30bd
000001a0: 02b8 bc3d 154a ae3d 04e4 ffbc 7388 a73d
000001b0: a7df 2cbd f268 31bd 4458 b93d f31e 1dbd
000001c0: 3b35 bc3d fb4a 23bd 173d 23bd 8a99 2abd
000001d0: 9f0b 2cbd b65e b53d 98af b23d dace b73d
000001e0: a55b 2abd cb80 b73d 70eb b53d 11a8 2fbd
000001f0: 2c46 27bd 1d23 25bd e96a c03d b114 bf3d
00000200: e19a 2bbc a302 9f3c 3a9a 13bc 4c0b 36bc
00000210: b94d 16bc 1e1b 05bc b09f 873c 706f 983c
00000220: 4a5f 1fbc 15e8 28bc 1d73 633c 62b7 10bc
00000230: e7a7 8d3c 40a2 9a3c b286 05bc 150b 8c3c
00000240: aa6a 06bc 87db 943c 505b 823c a41c 8b3c
00000250: d3d3 963c d84e 13bc 4b65 2dbc 7115 13bc
00000260: 03ee 933c e40b 23bc 8f8e 17bc f5bf 973c
00000270: a0e9 933c 4f85 893c 793b 16bc 5bf1 2dbc
00000280: fed9 c93d b708 39bd 71b5 bd3d 630e d43d
00000290: b535 c13d 9f4a c33d fa27 33bd 9a16 39bd
000002a0: 68fe c53d 04f6 b63d 1698 05bd 8d23 b03d
000002b0: aa41 35bd c2ad 39bd b0b7 c23d c9d5 24bd
000002c0: 196e c53d 7914 2bbd 3313 2bbd d340 33bd
000002d0: d830 34bd 0d87 be3d e383 bb3d cff3 c03d
000002e0: 0f8a 32bd 3bc3 c03d 1f01 bf3d e156 38bd
000002f0: a352 2fbd 91b1 2dbd 7bb6 c93d 1627 c83d
00000300: 3c6b d03d 2ef8 3ebd 2527 c43d 03ce da3d
00000310: 7aae c73d 8eb9 c93d 2af2 38bd fe2b 3fbd
00000320: dba0 cc3d 392b bd3d 8ee9 09bd fd4d b63d
00000330: 5a48 3bbd 27f0 3fbd d66c c93d fb4b 2abd
00000340: 4c04 cc3d 417c 30bd a2cc 30bd c85c 39bd
00000350: 9e62 3abd bc14 c53d edd5 c13d 017e c73d
00000360: ea72 38bd 0365 c73d 5c7f c53d 7135 3ebd
00000370: 8f37 35bd 6585 33bd 715b d03d 4da3 ce3d
00000380: b6da 9dbd 88ab 1d3e a3c0 92bd 259b a4bd
00000390: 1d0a 97bd 0558 95bd 7e05 163e fa8d 213e
000003a0: 9513 9fbd c4e3 96bd a1e9 d23d c219 8ebd
000003b0: 8031 1a3e d761 1c3e 0d3a 97bd 99f2 113e
000003c0: 1bb6 97bd 40d5 1a3e 15a1 123e 1755 1a3e
000003d0: 60a2 1a3e 57c2 97bd b0c0 9cbd cdb2 97bd
000003e0: 922a 183e e909 9cbd 0fb0 96bd 6435 203e
000003f0: f53b 183e 0fc1 1b3e b5f6 93bd 256e 9cbd

fc3.bias f4 [16]
0.118707396 0.17239912 0.16586496 0.17226675 0.023932196 0.18054049 0.18647169 0.19819005
0.09272289 0.1399441 0.18052277 0.19532914 -6.09666e-40 0.19335732 0.16480464 0.14975351
00000000: dd1c f33d 6589 303e 81d8 293e b266 303e
00000010: 740d c43c 9bdf 383e 6ff2 3e3e 55f2 4a3e
00000020: 80e5 bd3d 824d 0f3e f6da 383e 5d04 483e
00000030: 80a3 0680 76ff 453e 8cc2 283e fc58 193e

fc4.weight f4 [1, 16]
-0.30531368 -0.44443443 0.5688 -0.44419235 0.08317936 -0.46574014 -0.48115832 0.679338
-0.23821299 -0.3602699 -0.46552202 -0.5039328 1.68981e-40 -0.4988422 0.56531507 0.5140391
00000000: 1352 9cbe e98c e3be e09c 113f 2e6d e3be
00000010: f159 aa3d 7e75 eebe 625a f6be 18e9 2d3f
00000020: 1bee 73be 4c75 b8be e758 eebe bd01 01bf
00000030: 0dd7 0100 3f68 ffbe 7db8 103f 1198 033f
