loan_fnn_model_mix.pth (torch, 62282 bytes, 21 tensors)

fc1.weight f4 [128, 13]
000000 d9 3b b7 3c 8b e0 ec 3b ec 2a 09 bc 91 31 00 3a
       0.022367405 0.007228916 -0.00837205 0.00048901985
000010 d7 37 1c 3c 78 84 c4 3b ea a7 d1 bb 79 c2 35 3d
       0.009534798 0.005997237 -0.0063981907 0.044374917
000020 f2 f8 4f bc d2 94 1c 3c 4c bd 8c bc 67 5c 35 bc
       -0.0126936305 0.009556966 -0.017180108 -0.011069394
000030 1e e2 56 ba 2d 41 ae 3c 3d 65 17 3c 30 d0 c4 bb
       -0.0008197146 0.021271313 0.009240446 -0.006006263
000040 d5 4f 0c ba bd 11 fb 3b ef f4 7d 3c 04 ff b4 3a
       -0.0005352472 0.0076620267 0.015500291 0.0013808911
000050 73 a1 1c 3d 8b 02 5a 3b 72 94 ec 3c 2a d5 18 bc
       0.038239907 0.0033265676 0.028879378 -0.009328166
000060 5c db 04 bc fc 46 0b bc 54 7e d9 3c 9d ef 3e bb
       -0.00810894 -0.008500811 0.026549496 -0.002913452
000070 ce 93 e3 3a be 40 c6 3c bf 17 da ba 67 1d 6f 3a
       0.0017362775 0.024200793 -0.0016639157 0.0009121508
000080 05 b0 bd bc 3d 8f 16 bd 79 c6 24 3b 26 a0 d0 b8
       -0.023155222 -0.036757696 0.0025142713 -9.948043e-05
000090 e2 25 0f 3b 7e 59 fd 3a 5b f5 a5 3b 0f 9d a4 bc
       0.0021842648 0.0019329039 0.005064649 -0.020094423
0000a0 52 55 a7 bc cb a0 11 bb 45 2f f4 ba f2 00 6f 3c
       -0.020426426 -0.0022221084 -0.001862981 0.014587628
0000b0 72 bb f3 39 0b 5d 1e 3b 61 20 bc ba 3f 71 12 3c
       0.0004648823 0.0024164345 -0.0014352911 0.008938133
0000c0 76 30 20 bc 64 99 09 3c 95 e3 ed 3b 79 76 87 3b
       -0.009777179 0.008398388 0.007259796 0.004133996
0000d0 45 d9 bc 3c f1 80 ce bb 03 57 26 3c 62 a1 82 39
       0.023052821 -0.006301992 0.010152581 0.00024915772
0000e0 94 93 7a bc a1 02 97 3b c0 f4 f2 3c 99 d7 f5 bc
       -0.015293974 0.0046084677 0.029657722 -0.030010032
0000f0 a3 7f bf b7 86 ce ee 3b e7 79 94 3b 74 2b 1c 3c
       -2.282841e-05 0.007287803 0.0045311335 0.009531844
000100 d9 3d bb ba d3 f7 72 bb 75 62 c3 bc 37 d4 8a bc
       -0.00142854 -0.0037073984 -0.023850659 -0.016946895
000110 03 3b b4 ba 26 61 d2 3c 77 d7 25 3b 1b a4 82 3b
       -0.0013750497 0.02568109 0.002530543 0.003986848
000120 3a 97 b8 3c 77 65 0a 3c 48 c3 18 bc 99 28 9b 3c
       0.022533048 0.008447043 -0.009323902 0.018940257
000130 6d f4 20 bc 5f 4d bd bb 0c eb d8 b9 34 e8 78 ba
       -0.009823901 -0.0057770456 -0.00041373854 -0.000949505
000140 1a 26 5e 3c 86 ba 34 3c e9 3d d3 bc b5 21 36 bd
       0.013558889 0.011030799 -0.025786357 -0.04446574
000150 a6 1f 9a 3b 4c c9 36 bd c6 e9 02 bb a2 d6 19 bb
       0.00470348 -0.044625565 -0.0019975766 -0.0023473878
000160 da f8 16 bb f0 9b 76 bb 9d dc df 3b 54 44 6e bc
       -0.002303651 -0.0037629567 0.006831719 -0.014542658
000170 6b b1 1f bc 69 91 3c bc d7 d2 18 bc 61 36 35 3c
       -0.00974689 -0.011509278 -0.009327612 0.011060328
000180 73 92 26 3c 5f 1b 54 3b 4e 51 18 3d 78 0e 20 3c
       0.010166752 0.0032364947 0.037186913 0.009769075
000190 1d b5 df bb 5f fa 41 3c 05 fb 4a bc 00 04 18 3c
       -0.0068270103 0.011839478 -0.012388949 0.009278297
0001a0 22 5f 92 bc f6 20 9f 3b 19 9a 15 ba 5e 21 55 3c
       -0.017867628 0.004856224 -0.0005706861 0.013008444
0001b0 f2 15 e1 bb 49 68 f6 ba 76 14 2e bb dd 58 99 3c
       -0.006869071 -0.001879939 -0.0026562489 0.018719131
0001c0 e1 fe dd 3b 11 f5 95 3c 86 5f cc bb 62 09 87 3c
       0.0067747687 0.018305333 -0.006236973 0.016483966
0001d0 c4 1c 0c 3c c5 a5 bd bc ef f9 89 bc 53 c2 3c bb
       0.00855178 -0.023150334 -0.01684281 -0.002880235
0001e0 ca 9e 99 3a 28 5e 80 bb ba cf 87 bb 16 57 46 3c
       0.0011720296 -0.0039174743 -0.004144636 0.012105724
0001f0 43 04 ca bc 4d db 32 3c a3 9d 42 bc 2c bc 04 bc
       -0.024660235 0.010916543 -0.011878404 -0.008101504
000200 30 b7 24 3c 69 06 dd 3c fa 3d 14 3b 2a 23 6c 3c
       0.010053441 0.026980596 0.0022619949 0.014412681
000210 08 5b e1 bb 46 b6 d5 bc 4f 6e 0c 3c 10 f7 d2 3b
       -0.006877307 -0.026087891 0.0085712215 0.0064381436
000220 88 c2 a8 bc 74 a2 af bb ef 2c 3f 3a 59 3c f7 bc
       -0.020600572 -0.005359942 0.00072927674 -0.030180143
000230 0e 6d 17 3b ad 51 87 bc 2d 09 51 bb 0f b1 02 00
       0.0023105773 -0.016518438 -0.0031896338 2.47188e-40
000240 f8 ac 03 80 0a e3 04 00 76 0f 04 80 43 7b 01 80
       -3.37556e-40 4.48788e-40 -3.72888e-40 -1.36053e-40
000250 94 8e 04 00 6f 43 05 00 4c 2e 02 00 e8 c0 03 00
       4.1849e-40 4.83368e-40 2.00279e-40 3.44708e-40
000260 f1 b4 01 80 d3 9e 03 80 ff 8c 00 00 b1 54 02 80
       -1.56745e-40 -3.32482e-40 5.058e-41 -2.14053e-40
000270 a2 c4 a5 bc 49 3d f6 3c 9b 65 d5 bb d7 29 84 bc
       -0.020235363 0.03005852 -0.0065123565 -0.016133232
000280 0a e9 72 b8 bc 18 a8 bb cd 1e 1f bd 7e 87 f4 bb
       -5.791433e-05 -0.0051299017 -0.038847733 -0.007462441
000290 80 f8 2b bc 5b 17 09 3b 1d 0f ad bb f9 7c 2f bc
       -0.010496259 0.0020918462 -0.0052813427 -0.010710948
0002a0 53 92 29 3a 53 5d 4a bc 23 90 3c bc bd 6a 28 3c
       0.00064686424 -0.012351352 -0.011508974 0.010279355
0002b0 f0 b8 0e 3a 76 ca 1c 3b c0 6d 10 3c 8a 80 d9 3c
       0.0005444428 0.0023924387 0.008815229 0.02655055
0002c0 20 04 db bc 99 1a a2 bb 94 5e 04 b9 c2 65 50 3c
       -0.026735365 -0.0049470183 -0.00012623734 0.012719573
0002d0 90 8a 24 3c 52 b9 ee 3c bc 45 34 bc 21 6a 1b 3d
       0.0100428015 0.029141102 -0.011002954 0.03794301
0002e0 b1 61 1e 3c e0 7a a4 b7 3c ba 96 bc 44 73 9d bb
       0.009666846 -1.9607542e-05 -0.01839935 -0.0048050005
0002f0 e7 7b eb bc e1 35 a9 3a 30 74 95 bc 99 3b 5c 37
       -0.028745605 0.0012909734 -0.01824388 1.3126898e-05
000300 d8 26 94 b9 0c 55 88 bb 99 38 0f 3c 21 8a 87 3b
       -0.000282577 -0.004160529 0.008741521 0.0041363393
000310 57 3c a9 bc ed e7 3d bb 04 91 e1 3b 5e 07 d4 ba
       -0.020658655 -0.002897735 0.0068837423 -0.0016176512
000320 76 cb e7 3b f1 e4 01 bd d8 a9 0d 3b d3 29 17 3c
       0.007073815 -0.031712476 0.0021616127 0.00922628
000330 e8 8b 43 bc a1 15 74 3b 72 85 1b 3a 4b 7e ee 3c
       -0.011935212 0.0037244337 0.00059326657 0.029112956
000340 b2 94 2a 3c 0c 63 39 bc 30 9e d1 3a 19 2b 48 ba
       0.010411428 -0.0113151185 0.0015992578 -0.00076358166
000350 cb b1 22 bb 92 44 f1 39 73 f4 28 bc 89 5b 30 3d
       -0.002482521 0.0004601819 -0.0103121875 0.043056045
000360 aa 35 03 3b 6c fc 0d bb 46 5c b2 3b 14 53 ec 3a
       0.0020021 -0.0021665348 0.0054431288 0.001803013
000370 57 8b 47 3b aa 7f e1 3c a0 e2 0c bc ce be 10 3b
       0.0030448043 0.027526695 -0.0085989535 0.0022086385
000380 34 8c cf 3c cb 8d 28 bc 95 fc c8 39 50 69 27 bc
       0.025335409 -0.010287712 0.0003833516 -0.01021798
000390 f7 d3 12 bd 7e 30 97 bb 65 12 7c bb f7 f6 54 ba
       -0.035846677 -0.004613935 -0.0038463112 -0.0008123959
0003a0 d3 4d bc 3b 1f bb 32 3c de 35 13 bc cf 93 76 bc
       0.005746582 0.010908871 -0.008985011 -0.015049889
0003b0 9c fe df bb 5f 63 bf 3b 5c 40 8a 3a 82 ba 31 3c
       -0.0068357717 0.0058407034 0.0010547745 0.01084769
0003c0 d4 ae e3 3c bd 22 82 bc 34 c0 e6 3c bb 84 c6 bb
       0.027793325 -0.015885705 0.028167821 -0.006058303
0003d0 89 5a 76 3c 30 50 70 3c 7c 4e ce 3c ab 3f b8 bc
       0.015036234 0.014667556 0.025183909 -0.022491297
0003e0 4d 40 1a bb fe f5 c7 bb d1 20 ee bd fd 74 4f 3c
       -0.0023536861 -0.0061023226 -0.11627353 0.0126621695
0003f0 e1 1f d7 bb e2 26 bb bb c6 20 a0 3c dc 3a 8e 3b
       -0.0065650796 -0.0057114223 0.019546878 0.0043405127

fc1.bias f4 [128]
000000 fe b7 19 37 07 58 92 b6 90 7b 67 34 ab fe ab 36
       9.16235e-06 -4.361387e-06 2.1558503e-07 5.1258444e-06
000010 ac ef 28 b6 38 38 bb 34 ca 8a 60 37 34 ed 78 36
       -2.5173458e-06 3.487237e-07 1.3383755e-05 3.709295e-06
000020 a2 c0 04 36 17 71 58 b6 30 33 48 34 3c 4e bf 2f
       1.978166e-06 -3.2252335e-06 1.8645073e-07 3.4798286e-10
000030 10 53 cb b5 b8 60 3f b6 94 10 0b 37 2c de ce b3
       -1.5148853e-06 -2.8517516e-06 8.2889055e-06 -9.633035e-08
000040 f3 5c e9 b5 9c 39 4c 36 c4 d3 48 36 a4 54 43 37
       -1.7386905e-06 3.0431902e-06 2.9925586e-06 1.1642613e-05
000050 ec 1e 27 36 38 45 42 b5 a4 57 32 35 0f 99 0d 36
       2.4902938e-06 -7.237136e-07 6.64377e-07 2.109973e-06
000060 f4 7b df b6 2a 5c 92 30 50 bc 20 b5 ee ab 0d 36
       -6.660348e-06 1.0649093e-09 -5.9878676e-07 2.1110714e-06
000070 a3 bf 91 36 a8 cb 04 b6 9e 22 bc 36 94 34 5e 36
       4.343646e-06 -1.9788076e-06 5.6068666e-06 3.3111182e-06
000080 4b e8 e2 34 48 1e c5 34 25 41 e4 36 30 54 34 b6
       4.2264796e-07 3.6716142e-07 6.8025133e-06 -2.6871094e-06
000090 3a c3 0f 37 d0 5e 24 b4 ce 2d 71 36 18 02 6c b5
       8.568919e-06 -1.5308183e-07 3.593846e-06 -8.79199e-07
0000a0 aa db 0e 37 18 af 8a 36 e3 97 c1 b6 34 ac ee 35
       8.515004e-06 4.133104e-06 -5.76953e-06 1.77825e-06
0000b0 8e b9 a3 36 a8 38 39 b4 80 00 4c 33 2a f0 fb b6
       4.87938e-06 -1.7250079e-07 4.7497906e-08 -7.5083417e-06
0000c0 4d 5c de 36 d8 19 82 34 9c 17 95 b6 10 8d b2 35
       6.626861e-06 2.423319e-07 -4.4432945e-06 1.3303088e-06
0000d0 72 40 91 36 dc af e1 34 8a 02 1e 36 7e a7 05 36
       4.328839e-06 4.203747e-07 2.3545313e-06 1.9916038e-06
0000e0 64 df ed b5 e8 36 63 36 e0 25 c3 35 63 75 e6 b5
       -1.7722891e-06 3.3857596e-06 1.4539655e-06 -1.7170499e-06
0000f0 38 00 77 36 ab e1 c5 36 ac 19 15 b7 02 de d3 b5
       3.6805995e-06 5.8973287e-06 -8.887069e-06 -1.5785338e-06
000100 66 04 0d b5 82 4d a8 b6 98 b0 05 b6 9e 55 d1 b6
       -5.2532994e-07 -5.0158133e-06 -1.9921335e-06 -6.2386525e-06
000110 00 52 e7 32 df d3 e9 35 b0 4e c2 33 8d 61 c1 36
       2.6929229e-08 1.7421515e-06 9.048142e-08 5.7632046e-06
000120 a0 2a 37 b5 91 09 32 37 10 43 4f b5 39 72 3e 36
       -6.823484e-07 1.0611854e-05 -7.72111e-07 2.8378693e-06
000130 c0 10 ef 36 3d 04 9c 36 b0 c0 94 b6 40 6e 56 34
       7.124705e-06 4.6496557e-06 -4.4331755e-06 1.9970412e-07
000140 bd 9e 40 36 1e b8 cb 36 f3 4a f8 35 fa 8a c3 36
       2.8702627e-06 6.0713055e-06 1.8499253e-06 5.827632e-06
000150 55 08 42 37 00 f2 cf b6 e8 68 c5 b6 c0 71 d5 34
       1.1565241e-05 -6.1972532e-06 -5.88327e-06 3.9757106e-07
000160 e3 9f 05 37 82 9f 7a b6 2a 44 3f b6 e8 61 97 b6
       7.964644e-06 -3.7345749e-06 -2.8500895e-06 -4.5115485e-06
000170 5e 41 5c b6 00 2a bc 33 46 79 2b 35 8c 4d 1b 36
       -3.2820603e-06 8.762072e-08 6.387894e-07 2.3141938e-06
000180 a0 50 3a 36 e6 53 15 36 00 ec 2c 36 47 9f 9f b6
       2.776309e-06 2.2251565e-06 2.5767367e-06 -4.7571116e-06
000190 15 cd 38 36 b2 96 32 b7 c0 96 bb b3 d0 12 b2 35
       2.753751e-06 -1.0644713e-05 -8.735287e-08 1.3267509e-06
0001a0 ea 34 ba 36 70 b3 7f 36 1e 8e 4e b6 30 42 23 35
       5.549392e-06 3.8102407e-06 -3.0779115e-06 6.081855e-07
0001b0 d0 e7 3e b3 60 f7 17 b4 60 ba dd 36 b6 99 be b6
       -4.4448655e-08 -1.4152965e-07 6.60801e-06 -5.6803356e-06
0001c0 2b 56 3b 36 02 e8 80 b6 7a 0e 43 36 a2 0a 3e 36
       2.7915328e-06 -3.8417065e-06 2.906569e-06 2.8318395e-06
0001d0 80 e7 0d b3 70 6b 70 b6 80 b2 50 b3 b5 12 45 36
       -3.303967e-08 -3.5825324e-06 -4.859112e-08 2.9366176e-06
0001e0 f8 d7 da b5 13 79 ff b5 76 b0 7d 36 75 8e 3d 36
       -1.6305121e-06 -1.9034218e-06 3.7802652e-06 2.8246116e-06
0001f0 46 05 29 36 22 97 64 37 bf 8c 80 b6 b4 41 8f 35
       2.5186032e-06 1.3625047e-05 -3.8310823e-06 1.0673452e-06

bn1.weight f4 [128]
000000 95 c1 d2 3c b6 95 e8 3c c3 0d 9a 3c ac c6 80 3c
       0.025727073 0.0283917 0.01880539 0.015719734
000010 96 d1 d1 3c eb 92 b4 3c 70 28 28 3d 75 7d 9d 3c
       0.025612634 0.022042712 0.04105419 0.019224862
000020 8c 46 7f 3c d0 d9 bf 3c 00 ca d5 3c a3 84 07 00
       0.0155807845 0.02341929 0.026097298 6.9043e-40
000030 ea 67 26 3d f6 38 de 3c 1b e4 0f 3d b3 b0 7b 3c
       0.040626444 0.02712677 0.035129648 0.015361953
000040 ab 64 b4 3c 00 dd c4 3c 1c 7e cb 3c 65 99 98 3d
       0.022020658 0.024031162 0.024840407 0.07451133
000050 ca 4f ad 3c 0d 7c a3 3c bd c4 0a 3d 77 1c d5 3c
       0.02115621 0.019956613 0.03387903 0.02601455
000060 21 7a 98 3c 40 21 07 80 92 2c 83 3c d3 4e 07 3d
       0.018612923 -6.54776e-40 0.016012464 0.033034157
000070 d8 1c c3 3c 91 8b b6 3c cc f2 a1 3c df 09 07 3d
       0.023817465 0.022283347 0.019769095 0.0329684
000080 5b bf 90 3c 2d 07 bb 3c b1 c4 b2 3c 06 f2 41 3d
       0.01766937 0.02283057 0.021822305 0.047349952
000090 c6 03 cf 3c ea e9 f6 3c c3 00 2f 3d 99 66 0d 3d
       0.025270354 0.030140836 0.042725336 0.034521673
0000a0 12 e5 de 3c 6e cc f5 3c 53 3b ce 3c d4 01 85 3c
       0.027208839 0.030004706 0.025174772 0.016236223
0000b0 15 0c c2 3c 76 60 8b 3c 3c 7a 84 3c 51 82 e1 3c
       0.023687402 0.01701377 0.016171567 0.02752796
0000c0 97 e3 0c 3d 1f c3 ac 3c 49 0a 85 3c 1c 70 8b 3d
       0.034396734 0.021089135 0.016240256 0.068084925
0000d0 a9 9a d3 3c 67 3e 9f 3c a5 02 e4 3c f4 e0 e6 3c
       0.025830584 0.019438935 0.027833292 0.028183438
0000e0 08 74 8d 3c d9 d0 d2 3c a3 67 c5 3c c1 34 84 3c
       0.017267242 0.025734352 0.02409727 0.016138436
0000f0 86 fa f1 3c 60 b9 bf 3c 57 ce 23 3d d5 68 9f 3c
       0.029538404 0.023403823 0.039991703 0.019459167
000100 ef 6b 01 3d 64 f6 83 3d d1 1a d5 3c ff cd c5 3c
       0.031597074 0.0644348 0.026013764 0.024146078
000110 8d 8a 78 3d 51 01 c7 3c 4c 1a a4 3c e0 9a 09 3d
       0.060679007 0.02429262 0.02003207 0.033594966
000120 7f 3b be 3c c7 eb 39 3d b3 bb ee 3c a3 85 cc 3c
       0.02322173 0.04539087 0.029142236 0.024966067
000130 77 72 a7 3c f0 2f 3b 3d dc 32 d5 3c 1e c3 53 3d
       0.020440323 0.045700014 0.026025228 0.05169975
000140 a3 0c 88 3c d3 f5 80 3c 81 81 9b 3c 36 ef 1a 3d
       0.016607588 0.015742218 0.01898265 0.037825786
000150 57 f4 2f 3d c5 6a 16 3d 56 a8 de 3c e6 c6 ca 3c
       0.04295763 0.036722917 0.027179878 0.024753045
000160 34 7b 09 3d 2f 74 e9 3c ae 20 36 3d 9b 4d ce 3c
       0.03356476 0.028497783 0.04446476 0.02518349
000170 9b 90 04 3d c2 de 9c 3c 14 7f 03 3d ec 6f 8c 3c
       0.03236447 0.019149188 0.032103613 0.017143212
000180 42 b7 5d 3c 31 e5 5f 3d 29 c8 be 3c 1c 12 9c 3d
       0.013532462 0.054661933 0.023288803 0.076206416
000190 f1 07 ac 3c 21 e6 06 3d 67 96 0a 3d 97 b3 c4 3c
       0.02099988 0.03293431 0.03383484 0.024011416
0001a0 ee a6 a9 3c 7e 4c bb 3c c2 0c 91 3c 81 fc c2 3c
       0.020709481 0.022863623 0.017706279 0.023802044
0001b0 3f 64 78 3d f2 59 31 3d e9 2f ad 3c 6b ce 3f 3c
       0.060642477 0.04329867 0.02114101 0.011706929
0001c0 c0 64 22 3d 20 f1 0a 3d c2 72 1e 3d 28 a1 6d 3d
       0.039646864 0.03392136 0.03868366 0.05801502
0001d0 b3 54 ec 3c 7d 88 fb 3c ef db 79 3d ae ec 7b 3c
       0.028848981 0.030704731 0.06100076 0.015376253
0001e0 46 16 88 3c e8 43 77 3d 8d df d9 3c 09 5d 10 3d
       0.016612183 0.060367495 0.026595855 0.035244975
0001f0 e7 24 ba 3c bf 02 8a 3d ed 06 e4 3c 22 57 fd 3c
       0.022722675 0.06738805 0.027835334 0.030925337

bn1.bias f4 [128]
000000 cb 93 b0 bb 5e 6b b4 bc f9 f2 2f b9 4a e7 38 3c
       -0.005388712 -0.022023853 -0.00016779815 0.011285612
000010 e5 0a 5b bc 80 d5 b4 3b 7e 08 f9 bc b9 27 a1 3b
       -0.013369297 0.0055186152 -0.030399557 0.0049180654
000020 b4 19 51 bc ec ac e8 3b 91 f0 ea bc c3 2b 42 a1
       -0.012762476 0.007100692 -0.028679164 -6.5787675e-19
000030 17 2e de bc 6b 37 33 bc 65 f2 fb bc 71 75 b7 ba
       -0.027121587 -0.010938506 -0.030755231 -0.0013996792
000040 78 c3 a6 bc 17 70 7a 39 66 8c 64 3b 2f 2f 86 bc
       -0.020356879 0.00023883615 0.0034873723 -0.01637992
000050 40 f2 29 bc d2 e1 56 3b a4 a2 8a bc db f8 73 bc
       -0.010372698 0.0032788408 -0.016923256 -0.014890875
000060 ea cd b8 bb c6 de f3 b9 40 dc 5c 3a a9 9b e7 39
       -0.0056397812 -0.0004651455 0.0008425154 0.0004417573
000070 d0 cd c9 bc 14 39 84 3b 44 e2 a2 bc 9f 6a 67 bc
       -0.024634272 0.0040351246 -0.019883282 -0.014124542
000080 e5 96 a8 bc 0d 47 e6 ba b0 28 bf bb cc 44 b7 bc
       -0.020579765 -0.0017568782 -0.0058337077 -0.022371672
000090 85 4e a0 bb 6b 98 9d bc 52 8c 19 bd 32 3c f0 bc
       -0.0048921728 -0.019237718 -0.037487336 -0.029325578
0000a0 68 a2 75 3a a3 6c db bc 3e 7f a0 bc 49 b8 bf bb
       0.0009370209 -0.0267852 -0.019591924 -0.005850826
0000b0 09 17 dd 39 2c bb e4 3b 0e e3 0a bc 76 ae 3f bc
       0.00042169567 0.0069803204 -0.008476986 -0.01169931
0000c0 04 f2 e6 bc a1 ad 9a bc 20 d5 83 ba 5f fb 22 bc
       -0.028191574 -0.01888162 -0.0010058023 -0.009947627
0000d0 a1 f0 88 bc e7 5e 0c 3a f5 93 a5 bb 92 d2 8e bb
       -0.016716303 0.0005354718 -0.0050530382 -0.004358598
0000e0 b6 de 1e bc 59 28 34 bc 28 13 39 b9 e8 6e 02 bc
       -0.009696653 -0.010995948 -0.00017650111 -0.007961012
0000f0 2b 50 d9 bc ef 1e af bb c4 5c 18 bd aa f4 69 bc
       -0.026527485 -0.0053442637 -0.037197843 -0.014279524
000100 54 1d 34 3a 26 bf 2b bd 54 da c7 3b 06 4d 25 3b
       0.00068708253 -0.04193034 0.006099025 0.0025222911
000110 6f 58 ea bc 80 60 cc bc 5e fe 2a bc 4f 78 15 bd
       -0.028606622 -0.024948359 -0.010436622 -0.03649169
000120 d6 ef a3 bc c9 b6 ba bc 24 ba 15 bd 74 e9 a2 bc
       -0.020011824 -0.022792237 -0.03655447 -0.01988671
000130 89 cb 0b bc 21 99 f5 bc 59 4f 8d bc 4b 41 2a bd
       -0.008532413 -0.029980244 -0.01724975 -0.041566174
000140 6a 4c 8c ba 2e 1c 82 bc 2c 8a 8f bb de 17 90 bc
       -0.0010703926 -0.015882578 -0.004380485 -0.017589506
000150 a2 92 19 bd 20 02 66 bd a5 b6 01 bd f9 36 c0 bc
       -0.037493356 -0.05615437 -0.031668324 -0.023463713
000160 77 89 b4 bc c2 75 91 bc 46 ae 08 bd e0 ce 81 bc
       -0.022038205 -0.017756347 -0.033369325 -0.015845716
000170 e6 9f d9 bc a6 e0 d2 bb 39 46 c7 ba 08 50 9d bb
       -0.026565503 -0.0064354716 -0.0015203423 -0.0048008002
000180 d2 cd 12 bc 36 f6 dc bc 0d a7 e5 3b ba 29 79 bc
       -0.008960204 -0.026972871 0.0070084394 -0.015207702
000190 a9 f8 ab bc ed 51 e4 bc bc c7 ea bc cb 53 e3 3b
       -0.020992594 -0.027871097 -0.028659694 0.006937479
0001a0 aa 80 7f ba be 2e 73 3b d7 7f d0 bb 4e 8d a8 bc
       -0.00097466505 0.0037106718 -0.006362896 -0.020575192
0001b0 74 34 1c bd a0 c3 0c bd b1 e8 4c 3c c6 68 db 3b
       -0.03813596 -0.03436625 0.01250665 0.0066958396
0001c0 fc 77 15 bd c3 ae 04 bc 93 54 05 bd 7e be 37 bc
       -0.03649138 -0.008098307 -0.03255136 -0.0112148505
0001d0 c6 6d fd bc e7 9c dc bc 33 71 16 bc e0 01 57 bc
       -0.030936133 -0.026930286 -0.009182262 -0.013123006
0001e0 3f b5 5a 3c eb 87 2b bd 49 5f ee bc da 85 44 bd
       0.0133488765 -0.04187767 -0.02909817 -0.047979213
0001f0 f0 ec 4b bc ae f8 7c bc e5 40 21 bc 15 e0 a5 bc
       -0.012446627 -0.015440149 -0.009842132 -0.020248452

bn1.running_mean f4 [128]
000000 22 ff 85 3c f2 c8 9c 3c b3 d1 65 bc f6 73 5b 3b
       0.016357008 0.019138787 -0.014027047 0.0033485866
000010 94 f9 21 bc c3 05 5a 3c f9 2d b2 bc 2e cb ab 3c
       -0.009886164 0.013307038 -0.021750437 0.020970907
000020 95 83 8f 3c 1f b8 cd bb c0 7e 6d bc d8 57 e5 ad
       0.017518798 -0.0062780525 -0.014495552 -2.6073296e-11
000030 50 0b 73 bc 76 9a 76 bb 6d 2f a2 bb db df fc 3b
       -0.01483424 -0.0037628687 -0.0049495012 0.0077171153
000040 a0 b7 c9 3c b6 97 54 bc 25 aa 18 3c 06 5c e8 bb
       0.024623692 -0.012975624 0.009317909 -0.007091048
000050 c8 6f a8 3b d9 03 cd bb 66 de d4 bb f1 1c c9 3c
       0.0051402785 -0.006256562 -0.0064962385 0.024549933
000060 37 fa 05 3c c0 97 42 ac 2d e1 0b 3c 9d 09 8e bc
       0.008177332 -2.7653296e-12 0.008537573 -0.017338568
000070 f1 3c 85 bc 7e 93 10 bb be b5 8b 3c 7e 19 4c 3b
       -0.01626441 -0.0022060568 0.017054435 0.0031143124
000080 e8 df 81 3c f4 05 00 bb 49 ae 91 3b 16 a0 83 3c
       0.015853837 -0.0019534798 0.0044458252 0.016067546
000090 5c 4f 9c 3a a1 af b2 3c d1 ff d4 bc ea de 6c bb
       0.0011925506 0.021812262 -0.026000889 -0.003614361
0000a0 b0 c8 ab 3c 6f 5f 88 bb d8 61 bf ba ce 9f 5c 3c
       0.020969719 -0.004161767 -0.0014601303 0.013465835
0000b0 b2 e2 72 bc 7e 40 64 bb d3 e2 39 bc b2 1e d1 3c
       -0.014824556 -0.003482848 -0.011345583 0.025527332
0000c0 a6 38 df bb 35 4d 1d bb 23 3b 7f bc 26 c2 7b 3a
       -0.006812173 -0.0024002318 -0.015578064 0.00096038205
0000d0 01 58 cd 3c 97 67 b0 3b 9a 32 da bb d2 52 4a bc
       0.025066378 0.0053834426 -0.006658864 -0.012348847
0000e0 9e af c1 bb 37 1f 89 3b a5 6d 9a 3c 5a a9 a7 bb
       -0.005910828 0.0041846293 0.01885111 -0.005116624
0000f0 b7 72 d5 3c 46 83 1c bc 62 5f d1 bc 35 5c cf 3c
       0.026055677 -0.009552782 -0.025558177 0.025312522
000100 f1 7a 38 3c 69 60 19 3b 85 d1 25 bb da 48 c5 3c
       0.01125978 0.0023403412 -0.0025301885 0.02408259
000110 fc 45 3c b9 e8 05 c9 3c 58 40 9c 3c 9e 79 7b bc
       -0.00017955148 0.02453895 0.01907365 -0.01534882
000120 c0 25 e0 36 c3 61 dd bc 9d e5 84 bc e1 5e c4 3c
       6.680115e-06 -0.027024155 -0.01622277 0.023971023
000130 63 af ef bb 17 8a bb 3c a5 e0 d1 bb 5f fc 82 3c
       -0.007314609 0.022892995 -0.0064049535 0.01598948
000140 44 84 d4 3b 6a 1f 73 3c 98 60 f4 3b 34 93 95 bc
       0.006485494 0.014839033 0.007457804 -0.018258668
000150 25 56 c0 bc 1d a0 a6 bc 6f e6 c1 bc c4 f6 be 3c
       -0.023478577 -0.02034002 -0.02366945 0.023311026
000160 14 59 bc 3a 16 22 99 3c 8a d2 fe ba 3b 20 ae bc
       0.0014369809 0.018693011 -0.0019441408 -0.021255603
000170 98 93 69 bb 57 4e 28 3c a3 26 9a 3c f2 7a e6 3b
       -0.0035640951 0.010272584 0.018817252 0.007033699
000180 c7 3b 71 3c 14 d8 6a 3b 7f a3 8f bb c3 73 00 bc
       0.014723725 0.003583436 -0.004383504 -0.0078401
000190 a2 c6 a6 3c de c4 2e bc 2f 76 3b bc 98 a6 38 bb
       0.020358387 -0.010667054 -0.011441751 -0.002817547
0001a0 9e 1c 93 bc 3d e2 98 3b 82 4d 26 bc 96 8a 3e ba
       -0.017957982 0.0046656416 -0.010150315 -0.0007268576
0001b0 4c 61 c8 3b a8 a7 b9 bc 2f c8 8d bb 6c ee 58 ba
       0.0061151143 -0.022662953 -0.0043268423 -0.0008275274
0001c0 c4 cd b2 bc 76 f4 c7 3a 2e d1 d5 bb a0 c0 16 3c
       -0.021826632 0.001525535 -0.0065251803 0.009201199
0001d0 df fd 8a bc ef 66 c4 bb 9a 7f 65 bb e3 dc ac 3c
       -0.016966758 -0.005993716 -0.0035018683 0.02110142
0001e0 3c 26 91 3c 49 cb 6f 3a d8 19 ce 3c 70 f8 84 bc
       0.017718427 0.00091474183 0.025158808 -0.016231745
0001f0 7e 10 44 bc 81 90 a8 bb 61 4d 85 bc 1d 39 a8 bb
       -0.011966823 -0.0051441793 -0.016272249 -0.0051337616

bn1.running_var f4 [128]
000000 2b 44 81 3a 98 0b 81 3a e7 78 19 3c 23 51 d4 3a
       0.0009862235 0.0009845374 0.009367204 0.0016198497
000010 b2 b4 b1 3a 93 28 b5 3a a0 81 1e 3b 0f f6 12 3b
       0.001355788 0.0013821296 0.002418615 0.0022424494
000020 76 35 49 3b 3a a6 ac 3a 31 04 31 3c 04 00 00 00
       0.0030702031 0.0013172098 0.010804222 6e-45
000030 a0 18 a5 3b 3c 07 94 3a 0b 9b cb 3a 28 40 a5 3a
       0.005038336 0.001129366 0.0015533877 0.0012607621
000040 bd c5 55 3a c3 fa 27 3c 55 d6 ab 3a 7d ec 53 3e
       0.00081547705 0.010252657 0.001311014 0.20695682
000050 f5 67 79 3b de bb 3d 3a c5 31 fd 3b f8 ec 90 3a
       0.0038056348 0.0007237772 0.0077268803 0.001105695
000060 91 de b1 3a 04 00 00 00 75 71 50 3a 91 24 29 3d
       0.0013570358 6e-45 0.0007951477 0.041294638
000070 cd 6e bb 39 dd 66 a4 3a 2d d8 a6 3a 0e e7 bb 3a
       0.00035749972 0.0012542863 0.001272922 0.0014335827
000080 ca 9b 82 3a f7 28 5e 3a 91 8b 1c 3a f0 3a 33 3c
       0.0009964642 0.0008474732 0.0005971725 0.010939345
000090 c0 ff 06 3a aa 2f 8b 3a 5f 26 ce 3a 55 4d e7 3a
       0.0005149804 0.0010619063 0.0015727988 0.0017646948
0000a0 cd fb b6 3a 71 1b fa 3b df 28 b5 3a 66 7e 65 3a
       0.001396054 0.007632666 0.0013821385 0.00087544916
0000b0 85 e4 22 3c 94 8b 71 3a 5e 4d d6 3b 18 b0 94 3a
       0.009942179 0.0009214219 0.0065399846 0.0011343984
0000c0 42 b7 04 3b c4 64 af 3a c1 99 7b 3b 6a f4 0c 3e
       0.0020250832 0.0013381471 0.0038391205 0.13765112
0000d0 bc 3d 59 3a 87 d3 bc 3a 2b 60 5c 3a 33 8c 3b 3c
       0.0008287092 0.0014406302 0.0008406664 0.011447
0000e0 e0 76 b0 3a 2e 9a aa 3a 5d 85 9c 3a 61 f3 0a 3b
       0.0013463162 0.001301592 0.0011941601 0.0021202194
0000f0 51 5f 60 3a 7d ff 0e 3b 11 7b 59 3a ab b0 39 3a
       0.0008559125 0.0021819763 0.00082962314 0.00070835155
000100 31 a3 21 3b 27 00 84 3a 2d 54 1c 3d 83 2d 29 3a
       0.002466392 0.0010070846 0.038166214 0.000645362
000110 9f 9f 85 3a b5 a4 6c 3a 4a c6 4d 3a 7b 49 5d 3a
       0.0010194666 0.0009027229 0.0007849677 0.00084414304
000120 71 78 84 3a 3c c6 41 3a 49 df 75 3a 0d af 5d 3a
       0.0010106695 0.0007391905 0.00093792804 0.00084565656
000130 61 be b6 3a f1 63 35 3a c3 35 20 3b a1 53 c4 3a
       0.0013942235 0.00069194945 0.0024446107 0.0014978537
000140 a6 a2 a4 3a 79 f4 76 3a 84 e5 97 3a d9 22 6b 3a
       0.001256068 0.00094205845 0.0011588787 0.0008969731
000150 68 5e 4f 3a eb c3 f1 3a 9e 38 73 3a c7 30 6b 3a
       0.0007910491 0.0018445229 0.0009278151 0.0008971807
000160 e1 aa 10 3b 94 00 1a 3a cb f4 0b 3b 37 40 01 3a
       0.0022074508 0.000587472 0.0021355625 0.0004930528
000170 c4 60 1f 3b a5 70 b0 3a 6c 3f 82 3b 34 98 96 3a
       0.0024319151 0.0013461305 0.0039748456 0.0011489452
000180 bc 3c 69 3a 32 b9 ce 3a 1f 53 7b 3c 29 74 3e 3e
       0.0008897295 0.0015771745 0.015339642 0.18598999
000190 75 21 86 3a 6d 47 9c 3c 2b e3 92 3c 73 65 3d 3b
       0.001023336 0.019077027 0.017930588 0.002889958
0001a0 89 34 f2 3b 24 97 3c 3b 6d 2d 52 3b 59 ca a5 3a
       0.0073915166 0.002877661 0.0032070533 0.0012648805
0001b0 a7 be 71 3a 1c 25 04 3c d5 1e 8c 3a 1e e6 86 3a
       0.000922183 0.008065488 0.0010690341 0.0010291969
0001c0 ad 71 a1 3a c4 f6 8e 3a 2c d4 f4 3a 47 2e cc 3d
       0.0012317203 0.0010907282 0.0018678955 0.09969764
0001d0 2a 6b 13 3c be 16 1a 3b 05 88 f7 3d 61 0a 33 3a
       0.008997718 0.002351209 0.120864905 0.00068298547
0001e0 e2 ba bf 3a af bb 85 3a a9 f7 86 3a 3c 58 00 3b
       0.0014627839 0.0010203029 0.0010297197 0.0019583842
0001f0 43 05 93 3b 11 e1 1d 3e 83 02 54 3a a8 ad 13 3b
       0.004486711 0.15417887 0.00080875325 0.0022533927

fc2.weight f4 [64, 128]
000000 d9 c2 01 3b 8f 20 90 3b a0 9d c6 3b c0 74 78 bc
       0.0019799976 0.0043984125 0.006061271 -0.015164554
000010 40 34 a4 3a a1 ad 2e bc 26 5e 8e 3b b3 b3 68 bb
       0.0012527779 -0.010661514 0.0043447195 -0.00355075
000020 4d 59 7a 3b c7 eb 90 bb 55 6c a1 3b d3 15 2b a1
       0.00382002 -0.004422638 0.0049262443 -5.796594e-19
000030 ec 81 dc 3b 2c 8f 55 bc 40 b9 a1 3a da fb e6 3b
       0.006729355 -0.013034623 0.0012338534 0.007049066
000040 3c 12 70 3a 08 5b 6a 3b 4d 15 4a 3a 21 ed 02 bb
       0.00091579906 0.0035759825 0.00077088625 -0.0019977766
000050 df 1d 61 3b 5f 2e 14 bc e9 5d 81 bb 18 f8 eb 3b
       0.003435008 -0.009044259 -0.0039479625 0.007201206
000060 b6 58 e0 3b 18 12 03 ba ed 64 bd ba 27 8c 3c bc
       0.0068465127 -0.00049999496 -0.0014449634 -0.011508024
000070 98 73 38 3b e0 b4 4b bb 5a 07 da 3b ff c8 88 bb
       0.002814507 -0.0031083152 0.0066537084 -0.004174351
000080 f6 24 20 3a b2 7d 71 3c 35 a7 ac 3b 41 9b e5 bc
       0.0006109023 0.014739441 0.005268956 -0.028028132
000090 69 f9 35 bc 59 b2 02 3c 66 e0 2b 3b 73 8b 27 3c
       -0.011106827 0.007977092 0.0026226281 0.010226118
0000a0 6b 9f 5e 39 9c 21 91 ba a8 bf 99 3b a1 0a f2 3a
       0.00021230958 -0.0011072638 0.0046920367 0.0018466302
0000b0 10 51 0c 3c 0a 91 2d bc ce 30 04 3b a1 cd aa 3b
       0.008564249 -0.010593662 0.0020170691 0.005212501
0000c0 b2 c0 20 3c ee 2f e9 3b cc a5 d0 3b 3a c1 21 bc
       0.009811567 0.0071163094 0.006367421 -0.009872729
0000d0 1c 7a c1 3b a2 74 da bb 8f 0e ad bb 7f 19 d3 bb
       0.005904449 -0.0066667357 -0.0052812765 -0.0064422484
0000e0 c6 25 0e bb 5e 39 a0 bb b2 00 ad 3a 3e 6b 04 bc
       -0.0021689995 -0.004889651 0.001319906 -0.008082209
0000f0 c3 3e f1 3b d3 93 3b 3b 94 dc 46 bc d4 12 14 3b
       0.007362218 0.0028622046 -0.012137551 0.002259423
000100 24 93 59 bc fd ff 13 bc fe 66 3a bb 45 56 16 bc
       -0.01327971 -0.0090332 -0.0028442736 -0.009175842
000110 bf 6d bd bb 85 12 71 3b 60 55 e6 3a ab 47 90 3c
       -0.005780905 0.003678472 0.0017573051 0.017612299
000120 a3 2f b8 ba fc 1b 31 bc a1 9b 7c 3c ee 11 8b 3b
       -0.0014052283 -0.010809895 0.015417964 0.0042440807
000130 4b a5 9e 3b e2 1c d3 bc e1 51 0d 3c 81 cc 8f bc
       0.004841482 -0.025770608 0.0086254785 -0.01755357
000140 d9 08 2e 3c 02 15 85 3b 90 7f 26 3c 33 29 0f bc
       0.010622227 0.004061342 0.010162249 -0.00873785
000150 1e 6e 10 bc 50 09 58 3c c1 0c f8 3b 62 41 d2 3b
       -0.0088153165 0.013185814 0.0075698798 0.0064164856
000160 a6 41 bb 3b ab 03 22 3c 92 39 1d 3c 74 09 c1 3b
       0.005714613 0.00988857 0.009596245 0.0058910195
000170 dd 3d 7d 3b 68 10 32 3c 9d 89 da bb ba 1a 0c 3b
       0.003864161 0.010868169 -0.006669237 0.0021378235
000180 e5 c2 cd 3b f3 36 88 bc 8e ba 69 bc a6 51 42 bc
       0.0062793368 -0.016627764 -0.0142656695 -0.011860287
000190 48 ec 55 ba 2f 0e 6d 3c c3 22 fe 3b d9 6b ae bb
       -0.0008160514 0.014468714 0.0077556088 -0.005322915
0001a0 34 af a2 3a 5c 4e 56 ba 6c 1e 60 3a c1 ca 10 3c
       0.0012411834 -0.00081751286 0.0008549455 0.008837403
0001b0 b1 7e d3 bb e1 58 d2 ba 27 ab 71 bc 92 24 fb bb
       -0.006454312 -0.0016048216 -0.014750279 -0.0076642716
0001c0 85 30 c2 bb d0 d5 67 bb 34 fc 13 3a aa 3c 62 bc
       -0.005926194 -0.0035375245 0.0005645186 -0.013808409
0001d0 50 4c ea 3b 05 22 2e 3c a7 c8 0d bc 92 67 2d 3b
       0.0071502104 0.010628228 -0.008653796 0.0026459438
0001e0 79 b2 21 bc 97 07 1c bc a6 e5 b8 3a 5c f6 e6 3b
       -0.009869211 -0.009523294 0.0014106527 0.0070484113
0001f0 a8 3e 44 3c 32 1c 07 3b e9 e2 17 ba 10 2d 21 3c
       0.011977829 0.002061617 -0.0005794005 0.009837404
000200 ae c1 b1 3a 7d ef 11 3c 1b 21 bc 3b de 6b 2d bc
       0.0013561749 0.008907196 0.005741251 -0.0105848
000210 9c 15 9e ba ad 55 d9 bb 77 46 9c 3a ce 87 49 bc
       -0.0012060883 -0.006632528 0.0011922856 -0.012300445
000220 09 b3 10 3c a5 92 f5 bb 6a 14 c2 ba 41 fe b4 1f
       0.008831748 -0.007494288 -0.0014807109 7.665359e-20
000230 ae 6f 62 3b 2d cc 7f bb c0 c7 c8 3a 78 4a 6d 3b
       0.003455143 -0.003903161 0.0015318319 0.0036207717
000240 dc f7 d0 38 c9 35 b9 3b 87 be c2 bb 8a 4f 08 bb
       9.96438e-05 0.0056521636 -0.005943123 -0.0020799362
000250 d9 55 89 3b 19 72 f3 bb 04 cd 3b 3b be 69 e4 3b
       0.004191142 -0.007429373 0.0028656134 0.0069706133
000260 f2 0e e3 bb 6a 0d 15 ba 7d 52 0d bc 1b 54 6d bc
       -0.006929272 -0.0005685898 -0.008625624 -0.014485384
000270 2a f0 a6 3b 6b f5 17 bc f9 f2 52 bb 0c 95 05 3b
       0.0050945478 -0.009274821 -0.003218828 0.0020383028
000280 f4 69 e0 b9 f1 88 e2 3b 82 ab 0b 3c 9b ce 12 bc
       -0.0004280355 0.0069132973 0.008524777 -0.008960391
000290 52 10 4f bc 4d 26 5d 3c bc 6c 93 3b ce 61 d5 3b
       -0.012638168 0.013497901 0.004499046 0.0065119034
0002a0 1a c7 24 bc 5f 15 dd 3b ca fd 26 3c 22 60 e2 3b
       -0.010057235 0.0067469324 0.010192344 0.0069084326
0002b0 63 3c 0b bb 81 7d 66 bc 79 87 e6 3a 05 11 12 3c
       -0.002124571 -0.014068008 0.0017587981 0.008915191
0002c0 00 1f cb 3b a4 f5 24 3c 77 22 1a 3c c5 51 fb ba
       0.006198764 0.010068331 0.009407631 -0.001917415
0002d0 ac 26 d8 3b 46 de f3 bb 2d 09 6e bb 57 0a ba bb
       0.006596407 -0.0074422685 -0.0036321387 -0.005677502
0002e0 0f d8 0f 3b 0b 19 7e ba 97 c8 ca 3b 2e 8d 15 bb
       0.002194885 -0.0009693063 0.006188463 -0.0022819745
0002f0 d5 2d 0b 3b 04 2d 09 bb 2d 64 14 3a e7 79 8b ba
       0.0021237035 -0.0020931372 0.00056606793 -0.0010641188
000300 17 ed b6 bb b9 c1 3b bc af e5 09 bc a0 5f 96 bb
       -0.0055824625 -0.011459761 -0.008416577 -0.004589036
000310 77 ad 6a bc 48 e0 94 ba 0a d9 11 3a 3c 39 b7 3b
       -0.014323584 -0.0011358345 0.00055636524 0.0055915397
000320 a6 03 1f 3b d2 6a 38 3b 50 7f 52 3b f7 0a d2 b9
       0.002426365 0.0028139842 0.0032119341 -0.0004006249
000330 4f 72 55 3b 1d d9 15 3a 52 0b 5a 3c 20 20 1d bc
       0.0032569354 0.00057162513 0.013308363 -0.009590179
000340 df 8d b0 3b 97 cf 07 ba 28 dd 9c 3b b8 9f 34 bc
       0.005388006 -0.00051807746 0.004787106 -0.011024408
000350 c5 00 6b 3b b3 73 0e 3c a0 44 61 3b 24 2e a5 bb
       0.0035858613 0.008694577 0.003437318 -0.005040901
000360 08 72 d4 3b e1 4c 3c bc c3 7e d9 3b 64 2a 14 bb
       0.00648332 -0.011492939 0.0066374256 -0.0022608275
000370 7d 98 83 b8 0a 32 b8 3b 81 23 22 bc 42 c7 2b 3c
       -6.27497e-05 0.0056211995 -0.00989616 0.0104845185
000380 e6 79 04 3b 9c 35 8b bc df 83 57 bc 53 c4 7e ba
       0.0020214259 -0.016993336 -0.013153999 -0.00097185856
000390 db 8d 0d 3c d3 26 02 3b 85 a6 73 3b 78 97 50 bc
       0.008639778 0.0019859567 0.003717811 -0.012731425
0003a0 ed db d1 3b 71 e6 1f 3b c9 63 a4 ba 28 39 43 3b
       0.006404391 0.0024398828 -0.0012541945 0.0029788706
0003b0 65 07 92 bc 50 4e d2 3b 1c 2b 21 bc 52 35 f0 ba
       -0.017825792 0.006418027 -0.009836938 -0.0018326438
0003c0 0b 7c ed ba 46 14 87 bb 54 71 bc 3a ac d6 bd 3a
       -0.0018118633 -0.00412229 0.0014377036 0.0014483533
0003d0 07 72 b4 3b 56 2a 6f 3b 9c 7e be bb 33 97 d2 3a
       0.005506757 0.003649374 -0.005813433 0.0016066789
0003e0 d3 1b ba bb 5c 59 8c bc b4 cd 92 bb 94 00 01 3a
       -0.0056795864 -0.017132454 -0.004480088 0.00049210456
0003f0 60 6e 91 3b 24 95 c1 bb ce 4d b4 3b 12 73 b1 3b
       0.0044382066 -0.0059076715 0.005502439 0.005415329

fc2.bias f4 [64]
000000 20 65 b2 34 2a ca 33 b7 fc ce 90 36 dd b7 02 b7
       3.3228662e-07 -1.0716301e-05 4.3156306e-06 -7.791413e-06
000010 8a b2 98 b7 fc a9 9c 36 3b 4c a6 36 62 97 32 36
       -1.820295e-05 4.668951e-06 4.95606e-06 2.6612183e-06
000020 ac b3 b3 b7 23 54 e0 37 e4 6d fa 36 7c 33 13 37
       -2.1422129e-05 2.674206e-05 7.4633735e-06 8.77387e-06
000030 01 67 a4 b7 75 8c 3f b7 27 e9 3c 37 18 4a bc 36
       -1.9598288e-05 -1.141719e-05 1.1259958e-05 5.6114623e-06
000040 d2 c4 c2 b6 e0 78 05 37 93 de da 36 40 d1 29 36
       -5.8045634e-06 7.955561e-06 6.5228173e-06 2.5304762e-06
000050 5d 09 46 b7 48 be 8e b7 78 15 7f b6 5f 3c 18 38
       -1.18039e-05 -1.7016326e-05 -3.8010458e-06 3.629585e-05
000060 f7 8a 4c b7 47 1e 67 b7 1c 62 97 b6 40 19 98 b7
       -1.2191703e-05 -1.3775722e-05 -4.511572e-06 -1.813157e-05
000070 ea 03 29 37 da 55 a0 37 5d b8 d6 36 d4 4a 15 b8
       1.0074096e-05 1.9113464e-05 6.3991597e-06 -3.5594057e-05
000080 60 be 53 36 1d 29 89 b6 c0 e0 aa b7 80 24 5c 34
       3.1552263e-06 -4.0877044e-06 -2.0370237e-05 2.0502375e-07
000090 82 18 07 37 60 b4 a7 b6 3e 01 93 b6 8a 63 2d b6
       8.052333e-06 -4.9979863e-06 -4.381086e-06 -2.5836948e-06
0000a0 45 46 f9 b7 6b 38 23 b7 2c e1 4f b6 0d 0d d4 b7
       -2.9715835e-05 -9.728693e-06 -3.097647e-06 -2.5278447e-05
0000b0 7e a2 ae b7 bd 7a f4 37 61 33 78 36 20 ca 33 37
       -2.0818083e-05 2.9144221e-05 3.6984786e-06 1.0716292e-05
0000c0 70 d2 22 37 76 aa 49 b7 bc 44 f3 b5 1e 6d b9 36
       9.704949e-06 -1.2020222e-05 -1.8124915e-06 5.5261326e-06
0000d0 7a bb f3 37 54 be bd b6 12 94 6f b8 78 bc db 35
       2.9055158e-05 -5.654796e-06 -5.711994e-05 1.6371623e-06
0000e0 90 0d d7 36 08 59 66 37 02 01 91 37 c0 75 58 b6
       6.409078e-06 1.37297975e-05 1.7285816e-05 -3.2255048e-06
0000f0 26 78 1a b7 9c 42 d0 36 c0 ff e7 36 19 7d 46 38
       -9.2070895e-06 6.2066374e-06 6.9141097e-06 4.7323385e-05

bn2.weight f4 [64]
000000 47 61 4c 3d 9e 56 21 3d 0d fe 15 3d 0e f3 3c 3d
       0.04989746 0.039389245 0.036619235 0.046130233
000010 9e 69 21 3d 2e 66 90 3d 8b fa 3a 3d 62 2d 87 3d
       0.039407365 0.07050739 0.045649093 0.06600453
000020 f0 84 78 3d 9d 09 61 3d f5 63 3d 3d 7a 8c 4c 3d
       0.060673654 0.05494081 0.046237905 0.049938656
000030 e1 ea 5c 3d 2e 9a 37 3d 73 31 fe 3c cd 49 10 3d
       0.053934935 0.04482477 0.031029439 0.035226632
000040 d4 af 96 3d 76 c3 50 3d 5c cf 12 3d d7 0d 80 3d
       0.07357755 0.050967656 0.035842285 0.0625264
000050 e3 fe 3c 3d 1f 21 47 3d 65 85 4f 3d d6 8a 1e 3d
       0.046141516 0.04861557 0.050664324 0.038706623
000060 f5 41 1d 3d 6e 67 62 3d c5 b6 53 3d 29 df 27 3d
       0.03839298 0.05527442 0.051687974 0.040984306
000070 1f 19 35 3d 0a 02 2a 3d c5 1e 25 3d 09 64 3f 3d
       0.04421341 0.04150585 0.040312547 0.04672626
000080 d7 54 8d 3d f9 11 36 3d 37 8e 1f 3d 86 69 3e 3d
       0.069009475 0.044450734 0.038953986 0.046487354
000090 73 f4 2a 3d 8e db 34 3d de d7 41 3d f5 b2 82 3d
       0.04173703 0.044154696 0.047325008 0.063817896
0000a0 da 83 87 3d 1b f1 27 3d a5 8b 30 3d 76 7e 81 3d
       0.066169456 0.04100142 0.043101925 0.06322949
0000b0 19 5c 2e 3d fc 27 55 3d 8f bd 47 3d c6 cd 29 3d
       0.0425683 0.052040085 0.04876476 0.041456006
0000c0 7a 75 2f 3d 65 79 52 3d 83 17 12 3d 9b c3 1b 3d
       0.042836644 0.051385302 0.035666954 0.03802834
0000d0 c9 05 3e 3d a6 bc 40 3d b0 9a 26 3d 6b c2 25 3d
       0.046392236 0.04705491 0.040674865 0.040468615
0000e0 ef 54 41 3d 49 97 52 3d 1b f4 7e 3d c2 2d 8b 3d
       0.04720014 0.051413808 0.062244516 0.06795837
0000f0 f2 0f 31 3d 21 ad 0e 3d 3d b4 21 3d 78 78 8e 3d
       0.043228097 0.034833077 0.03947853 0.06956571

bn2.bias f4 [64]
000000 d7 3d b4 bc ef 0c a8 bb ca 67 01 bb 22 f2 ca bc
       -0.022002144 -0.005128495 -0.00197457 -0.024773661
000010 18 cd e4 3b 01 74 64 bc 83 2c a9 bc 1b db 30 bd
       0.006982457 -0.013943673 -0.020651108 -0.043177705
000020 cc 9b 2f bc 57 64 4d 3a 7a 7e b5 bc 81 64 59 3c
       -0.010718297 0.0007835081 -0.022155035 0.013268591
000030 b5 27 06 bd aa 7e 33 bc f2 1d 01 bb 67 e4 2a bb
       -0.03275271 -0.010955492 -0.0019701687 -0.002607608
000040 9f e4 31 bd 41 61 a9 bc 1d 0f d0 bb 9a 85 05 bd
       -0.04343092 -0.020676257 -0.006349458 -0.032598116
000050 64 46 14 bb 45 b0 ce bc 96 1e 41 3c a1 96 97 3c
       -0.0022624964 -0.025230536 0.011787077 0.018504443
000060 61 6f 62 bc 33 b7 04 bd 62 f8 4d 3c c9 61 36 3c
       -0.0138205 -0.032401275 0.012571426 0.011131712
000070 38 15 57 3c a9 9f 8e 3c 3a b0 87 3c 7e 5b 72 3c
       0.013127618 0.017410116 0.016563524 0.014792321
000080 22 5b 26 bd 91 85 04 3c 76 7c 03 bb 30 dc d7 bc
       -0.040614255 0.008088485 -0.0020063198 -0.02635011
000090 ce f3 9d 3c 4f c3 d2 bb 1e d0 86 3c 55 29 05 bb
       0.019281294 -0.006431974 0.01645666 -0.0020318825
0000a0 22 44 0d bd 45 5c 4f bb 71 79 02 bc 07 6f 2d bd
       -0.034488805 -0.003164069 -0.007963524 -0.042342212
0000b0 35 27 db bb e4 ef 2f 3c b6 1a 06 bd 7b 82 af bb
       -0.0066880235 0.010738347 -0.032740317 -0.0053561307
0000c0 0e a3 88 bc a9 63 ff bc ed a9 c8 bb 33 01 9e 3c
       -0.016679313 -0.031175451 -0.0061237724 0.019287681
0000d0 8e f4 5f 3c 22 71 f1 bc 7b db 88 3c c0 ec 7f 3c
       0.013669146 -0.029472891 0.016706219 0.01562041
0000e0 b7 ea 95 3c 4c 73 9e 3c 4c 87 13 bd 6c 4c 41 bd
       0.018300397 0.019342087 -0.0360177 -0.047192022
0000f0 45 3f 49 bc af 03 1b 3c ba 90 6b 3c 2e 90 3e bd
       -0.012283151 0.009461327 0.014377767 -0.04652422

bn2.running_mean f4 [64]
000000 b8 13 26 bb 32 8e 1d bb af a7 e0 ba 80 8c 16 bb
       -0.0025341343 -0.0024041054 -0.0017139817 -0.0022971928
000010 ca f2 82 ba a7 7e 88 bb 50 92 d7 3a d5 56 7a bb
       -0.000999057 -0.0041654888 0.0016446803 -0.0038198729
000020 0f 56 1d bb da 91 04 bb 0b 1b 32 bb 8a dc 4f 3a
       -0.0024007594 -0.0020228536 -0.0027176763 0.0007929286
000030 92 0a 16 bb 68 8f 34 bb 58 01 a1 ba 76 95 71 ba
       -0.0022894484 -0.0027551297 -0.0012283726 -0.0009215692
000040 dd 8c 54 bb 96 0f 3f bb 66 39 9a ba fb fb 4c bb
       -0.0032432594 -0.0029153577 -0.0011766374 -0.0031278122
000050 4d c2 54 bb d1 cb db ba 4a 46 ac ba da 5e 80 3a
       -0.0032464445 -0.0016769116 -0.0013143506 0.0009793893
000060 2d d3 f6 ba 44 39 22 bb 7f e9 66 3a 89 ba 00 ba
       -0.0018831246 -0.0024753371 0.00088085973 -0.00049106084
000070 10 82 6b 39 a7 0b 74 3a 0b 6e 91 3a 03 e6 50 3a
       0.00022459798 0.00093095977 0.0011095417 0.0007968845
000080 5b 90 6c bb 61 6f 3f ba 4e e8 93 b9 61 07 cf ba
       -0.0036096785 -0.00073026685 -0.00028211105 -0.0015795046
000090 cd fc 92 39 93 16 27 bb 71 f7 37 ba ec 2b 77 ba
       0.0002803564 -0.0025495633 -0.00070177676 -0.0009428847
0000a0 7d fd 28 bb 7e b0 0a bb ac ba 8a ba 58 c2 56 bb
       -0.0025785856 -0.0021162326 -0.0010584197 -0.0032769646
0000b0 e0 bb 4f bb 17 0a 6b 3a 02 ae 0f bb 9a 5d 01 bb
       -0.0031697676 0.0008966042 -0.0021923785 -0.0019739629
0000c0 f9 58 be 3a 6e 9d e4 ba 0f cc 5b ba 7e 03 a8 3a
       0.0014522366 -0.0017441937 -0.0008384594 0.0012818424
0000d0 da de 7f 3a 25 a5 34 bb 1d 87 f7 38 29 ff e4 3a
       0.00097606855 -0.0027564254 0.000118030446 0.0017471063
0000e0 2d 5a b8 39 e6 88 11 3b dd 84 46 bb 97 00 6f bb
       0.000351624 0.0022206842 -0.0030291595 -0.0036468857
0000f0 33 58 ab ba ed 9e fe ba 57 d9 7c 3a 1e af 4f bb
       -0.001307255 -0.0019426026 0.0009645423 -0.0031690071

bn2.running_var f4 [64]
000000 b3 80 7a 37 51 f3 50 37 4a f8 8e 37 ae d7 27 37
       1.4931126e-05 1.2454418e-05 1.7043338e-05 1.00041925e-05
000010 02 e2 a3 36 de d1 71 37 40 35 2b 37 25 04 34 37
       4.8840893e-06 1.4413583e-05 1.02047925e-05 1.0729801e-05
000020 18 e2 67 37 74 60 82 37 f5 a3 03 37 04 3a 74 37
       1.38213145e-05 1.5542122e-05 7.846383e-06 1.4557041e-05
000030 65 26 3c 37 06 e6 45 37 b2 66 1c 37 eb 2e 60 37
       1.1214613e-05 1.17956715e-05 9.322235e-06 1.3362364e-05
000040 ff f6 70 37 cc 57 1e 37 46 34 30 37 f2 1e 5e 37
       1.4362623e-05 9.437976e-06 1.0502588e-05 1.3239436e-05
000050 35 34 85 37 65 97 19 37 29 31 8a 37 80 4f 71 37
       1.5879146e-05 9.15476e-06 1.6473774e-05 1.4383229e-05
000060 ba 11 33 37 8a 72 f5 36 5d 4b 70 37 27 79 14 37
       1.0673359e-05 7.314903e-06 1.4322662e-05 8.849695e-06
000070 52 38 87 37 db 7c 85 37 bc 27 76 37 09 ef 92 37
       1.611948e-05 1.5912976e-05 1.4671994e-05 1.7515866e-05
000080 69 4f 55 37 ed 9c 49 37 94 69 26 37 7a f8 06 37
       1.27142785e-05 1.2017071e-05 9.918953e-06 8.044875e-06
000090 23 79 80 37 52 b4 38 37 90 08 89 37 0d 0c 7a 37
       1.5315198e-05 1.1009239e-05 1.633566e-05 1.4903967e-05
0000a0 5e 8b 7c 37 7c 3f 86 37 65 c1 31 37 6f c7 3d 37
       1.5052819e-05 1.6003607e-05 1.059505e-05 1.1311712e-05
0000b0 55 29 5c 37 0e 9e 86 37 fd 4e 35 37 c2 28 4a 37
       1.3122645e-05 1.6047645e-05 1.0806832e-05 1.2049628e-05
0000c0 c4 c4 12 37 9e 85 da 36 a1 18 68 37 66 a5 69 37
       8.748091e-06 6.5124614e-06 1.3834012e-05 1.3926392e-05
0000d0 1a 61 75 37 73 79 10 37 8d 4d 7a 37 c0 3b 76 37
       1.4625746e-05 8.611346e-06 1.4919217e-05 1.4676654e-05
0000e0 cb f1 81 37 fa 49 5a 37 a2 17 3a 37 8c d9 25 37
       1.5490592e-05 1.3011037e-05 1.1091966e-05 9.885418e-06
0000f0 85 2f 42 37 a6 30 7c 37 00 58 41 37 a1 cd 2b 37
       1.1574365e-05 1.5031697e-05 1.15241855e-05 1.0240271e-05

fc3.weight f4 [32, 64]
000000 48 f5 43 bb 59 2c 22 bc 04 89 3d bc f3 6a b6 b9
       -0.0029900838 -0.009898269 -0.011568312 -0.00034793428
000010 e2 6e 59 3b 3a f0 8e bb f8 cc e8 bb 29 f4 1e bc
       0.0033177664 -0.0043621333 -0.0071045123 -0.009701767
000020 f3 de f8 3b d9 04 bb b9 69 15 03 bc e2 b9 80 3c
       0.007594937 -0.0003567103 -0.00800071 0.015713636
000030 95 a9 25 bb 5d a8 54 bc 6c b5 4a bc 24 da 08 bc
       -0.002527808 -0.012979594 -0.012372356 -0.00835279
000040 af 2b af ba 74 76 d2 bb 16 ad 1d bc bb e6 b0 bb
       -0.0013364459 -0.006422812 -0.009623786 -0.005398599
000050 34 f0 99 bb 84 23 b2 ba 62 30 df 3b 27 53 53 3c
       -0.004697824 -0.0013590907 0.0068111876 0.012898243
000060 7d e1 d5 bb 4a 07 9c bb b0 c4 27 3c 49 0b 11 3c
       -0.0065271244 -0.004761611 0.010239765 0.008852788
000070 9a 26 5e 3c 4c 96 31 3c 19 5d e0 3b 9f 06 4d 3c
       0.013559008 0.010839056 0.0068470356 0.012513786
000080 01 bf 9f bb 65 57 ee 3b cb a7 0d 3b 81 c5 9c bb
       -0.0048750644 0.007273602 0.0021614905 -0.0047842865
000090 88 39 90 3c dc cc 29 bc 88 ae 50 3c 1a 85 91 3c
       0.017605558 -0.010363784 0.012736924 0.017763663
0000a0 9f b3 29 bb 27 33 12 bc f6 c8 3a bc c6 18 02 bc
       -0.0025894416 -0.0089233285 -0.011400452 -0.007940477
0000b0 5e ec 37 bc 70 8a 93 3c 4f b9 e0 ba 24 d8 11 bc
       -0.011225788 0.018010348 -0.001714507 -0.00890163
0000c0 f1 d1 dd bb 0e 8b 07 ba ba f9 03 bc 3e 68 a1 3b
       -0.0067694117 -0.0005170562 -0.008055145 0.0049257567
0000d0 e3 dd 2e 3c f7 6b d5 bb e9 49 4e 3c 22 7e 50 3c
       0.010673019 -0.0065131146 0.012590864 0.012725385
0000e0 a5 c4 32 3c c0 a5 7a 3c 97 fc ac bb 55 be 9b bb
       0.0109111415 0.015298307 -0.0052791345 -0.004752914
0000f0 6b b1 33 bc 35 11 1b bc 32 87 59 3c d6 f8 e9 bb
       -0.010967593 -0.009464552 0.013276862 -0.0071402593
000100 81 b2 85 3c 40 a3 34 bb 8d a4 05 3b 10 3f ac 3c
       0.016320469 -0.0027563125 0.002039227 0.021026164
000110 7e 46 56 bc 1a d5 9c bc 2f db 35 bc dd 61 fb 3c
       -0.01307833 -0.019144583 -0.011099621 0.030686313
000120 08 d7 98 bc 6b ab 7b bc 57 5e ad 3c 78 15 0a 3b
       -0.018657222 -0.015360693 0.021163149 0.0021069925
000130 64 d9 8e 3c d4 c5 73 3b 54 3c fc 3a 62 61 2e 3c
       0.017437644 0.0037196772 0.0019244053 0.010643335
000140 1e 37 b3 3c bf de 63 3c 8b df 8e 3b 01 a7 d8 3c
       0.021876868 0.013908087 0.0043601445 0.026446821
000150 e1 e2 a1 3b 84 37 31 3c a1 70 c7 bb d9 ae 15 ba
       0.004940376 0.010816459 -0.0060864245 -0.0005709953
000160 9e d5 27 3c 06 a0 86 3c 36 fe 81 3b 56 dc 03 3b
       0.010243801 0.016433727 0.003967072 0.0020120344
000170 56 24 41 3a a0 c6 65 38 a0 a7 56 3a f0 52 a0 3b
       0.000736778 5.478284e-05 0.000818843 0.0048926994
000180 75 35 c6 3c 0a aa df 3a a7 88 fd bb 06 4f 67 3c
       0.024195412 0.0017064225 -0.0077372375 0.014117962
000190 1a 85 46 3b 9c 79 4c 3c 9b 9e bb bb ad c1 67 bc
       0.0030291737 0.012480166 -0.0057256944 -0.014145297
0001a0 d8 8b dd 3c 6b 77 77 ba 80 da da 3b 27 56 bd 3c
       0.027044222 -0.0009440097 0.0066788793 0.02311237
0001b0 81 0d 80 3b 5b 9a 23 ba bd 9a 8b 3c a0 19 82 bb
       0.00390786 -0.00062409573 0.017041558 -0.00397034
0001c0 a5 ab 64 bc be c6 9e 3c 2f c3 e1 3b fa 49 a8 3a
       -0.013956939 0.019381877 0.006889723 0.001283943
0001d0 4f 6e d4 3a 95 b0 ad 3c 48 0f 03 bb 20 16 7b 3b
       0.0016207191 0.021202365 -0.0019998122 0.0038312748
0001e0 43 89 45 3a 68 04 c1 3b 43 64 a1 3c a9 50 fe 3c
       0.0007535407 0.005890418 0.019701129 0.031044321
0001f0 b6 c6 e4 3b 80 67 46 3b cb f7 71 3b 9d d6 c0 3c
       0.006981696 0.0030274093 0.0036921378 0.023539836
000200 14 c7 8d ba 53 22 da bb 1e a8 3f bc f5 d8 cc 3a
       -0.0010816776 -0.006656924 -0.011697797 0.0015628623
000210 a8 dc b9 3b 03 36 16 bc 4b ff e9 bb aa b5 a5 bb
       0.005672056 -0.009168151 -0.007141029 -0.0050570564
000220 ed 7d d6 3a c8 14 93 3b 76 ab a2 ba 3e bd 7c 3c
       0.0016364433 0.0044885613 -0.0012410718 0.015425978
000230 94 65 97 3b 81 f2 50 bc 12 b7 f2 bb a1 17 0c bc
       0.0046202634 -0.01275313 -0.0074070776 -0.008550555
000240 d2 fc 5f b9 40 2a f4 bb 6e 1b a0 bb 71 4d e2 ba
       -0.0002136112 -0.0074513257 -0.0048860824 -0.0017265511
000250 70 5a 9e bc 34 65 e3 b6 46 e9 20 3c 86 24 bc 3b
       -0.019330233 -6.776909e-06 0.009821242 0.0057416586
000260 b9 e6 c5 bb f8 91 b7 b9 68 35 72 3c 2d c8 33 3c
       -0.006039467 -0.00035013235 0.014783241 0.010973019
000270 6d a9 c9 3b 9d 03 fc 3b d7 42 46 3c d9 0f 42 3c
       0.0061542303 0.0076908604 0.012100897 0.011844599
000280 12 ba d6 bb c0 c0 0e 3c 9b 45 84 3b c9 bc 19 3b
       -0.006552943 0.008712947 0.004036618 0.0023458472
000290 70 ff 88 3c d2 44 43 bc 90 44 62 3c 1d c5 69 3c
       0.016723365 -0.0119182635 0.013810292 0.014268187
0002a0 5d d0 1a 38 c7 f4 6f bc 9b 71 3d bc 2d 93 d5 bb
       3.6910515e-05 -0.014645762 -0.01156273 -0.006517789
0002b0 be 05 6e bc 39 7f 34 3c e6 90 01 3a 0c 10 db bb
       -0.014527736 0.01101666 0.0004942551 -0.0066852625
0002c0 5b 6f ef bb ad 1a f2 3a 40 3c 24 bc dd ce 24 3c
       -0.007306976 0.0018471085 -0.01002413 0.010059086
0002d0 9d c4 e8 3b 84 21 b2 bb 85 3a 59 3c d0 c6 04 3c
       0.0071035163 -0.0054361243 0.013258581 0.008104041
0002e0 df 77 89 3c 04 f9 a0 3c 34 0a 8b bb 2d ab af bb
       0.016780792 0.01964999 -0.0042431597 -0.005360982
0002f0 d9 90 09 bc f8 0a 1a bc db cc 3d 3c 74 63 e8 bb
       -0.008396351 -0.009402029 0.011584486 -0.007091934
000300 90 98 5d bb ee c1 73 bb b1 40 21 bc bb bd e6 3a
       -0.0033812858 -0.0037194449 -0.009842084 0.0017604152
000310 6a a1 f1 3b e9 8d ef bb f5 a3 2b bc 99 00 ca bb
       0.0073739784 -0.007310618 -0.010476102 -0.006164622
000320 6b bf f7 ba cf a5 d8 bb eb a6 de bb 5e cd 83 3c
       -0.0018901651 -0.006611563 -0.0067948005 0.016089138
000330 28 6f 3d 3b 64 ee 16 bc d2 2d 36 bc 6e a7 98 ba
       0.0028905366 -0.00921211 -0.011119323 -0.0011646578
000340 76 e8 01 bb 94 bb 04 bc 7a 87 23 bc 05 b7 b3 bb
       -0.0019822395 -0.008101363 -0.009981031 -0.005484464
000350 19 57 a3 bc de 5d 55 ba 64 6b 80 3c bc 56 28 3c
       -0.019938992 -0.00081392925 0.015676208 0.010274585
000360 43 94 74 bb e1 19 75 bb 7f 6d 83 3c b1 41 2b 3c
       -0.0037319816 -0.0037399458 0.016043423 0.010452674
000370 a9 c1 38 3c 11 ff 11 3c 47 5b 00 3c ae 9c 89 3c
       0.011276641 0.00891091 0.007834262 0.016798344
000380 3e 86 a4 bb 72 42 19 3c ca 25 ce 3a c4 13 5e ba
       -0.0050208857 0.009354221 0.0015727815 -0.0008471573
000390 15 9e a0 3c 6b b6 45 bc a4 a9 43 3c 99 3c e7 ba
       0.01960663 -0.012067418 0.011942301 -0.0017641961
0003a0 5c 1b e3 b9 01 2b 3c bc c4 ec 66 bb 58 31 e8 bb
       -0.00043317198 -0.011484862 -0.0035236338 -0.0070859604
0003b0 6d 22 31 bc fb 38 2f 3c 8b bb 39 3b 65 7c dd bb
       -0.01081143 0.010694738 0.0028340544 -0.0067592137
0003c0 33 fb f3 bb 1b da 49 3a 3b 51 a7 bb df cf 32 3c
       -0.0074457168 0.0007700042 -0.005106119 0.010913818
0003d0 6d a1 82 3c 4a bd 9f bb 13 dc 11 3c 4e b8 06 3c
       0.015946114 -0.00487486 0.008902567 0.008222653
0003e0 0f f5 15 3c 5a 65 9a 3c fd d6 e2 ba 4a 19 a2 bb
       0.009152665 0.018847156 -0.0017306503 -0.0049468623
0003f0 bb 5a 4e bc 20 f3 65 bc b1 ba 2b 3c de 5e 53 bb
       -0.012594874 -0.014035016 0.010481522 -0.003225259
