loan_fnn_model_single_layer.pth (torch, 41664 bytes, 7 tensors)

fc1.weight f4 [500, 13]
000000 44 d8 03 3c 44 e7 14 3c b8 66 84 ba 23 68 07 3b
       0.008047167 0.009088341 -0.0010101413 0.0020661436
000010 1d 95 6b bb 84 5a ea 3a f7 89 f4 bb 94 25 2b 3c
       -0.0035947033 0.0017879759 -0.0074627358 0.010445971
000020 da 93 25 bc 65 58 38 3a d9 45 70 b8 db 6e b9 bb
       -0.010106051 0.0007032215 -5.728551e-05 -0.005658967
000030 d1 d8 78 ba ce 71 5a 3c c2 4f dc bb 76 92 33 39
       -0.00094927574 0.013332797 -0.006723375 0.00017125331
000040 c3 42 23 3c 6c cf d9 bb c2 9a b7 3b 90 4d 2c 3c
       0.009964648 -0.006647041 0.0056031654 0.010516539
000050 96 92 74 3c c4 30 81 3b b4 ff e3 3b c7 30 20 bb
       0.014927527 0.003942581 0.0069579724 -0.0024443136
000060 a9 cb 08 3b e2 3c c6 3b 2d 5a 7d 3c 97 66 ce bb
       0.0020873344 0.0060497383 0.015463394 -0.0062988508
000070 0f f6 07 3b 09 b5 5d 3c fc d7 8a bb 1d d5 f8 3b
       0.0020746028 0.013531932 -0.004237173 0.0075937645
000080 c0 76 89 3c 60 dd 83 3c 56 f6 16 3b 35 89 4e 3b
       0.016780257 0.01609677 0.0023035011 0.0031514887
000090 cd 4c 02 bb b2 ff 93 3b 87 c5 da 3b 82 6c 1c 3c
       -0.0019882203 0.0045165652 0.006676379 0.009547355
0000a0 9a 47 28 3c 26 c2 ad 3a 8b 7c 95 3a 6a fe 37 bb
       0.010270977 0.0013256713 0.0011404915 -0.0028075227
0000b0 bc 2d 14 3b 34 c8 83 bc 10 6c 48 3c 54 47 42 bc
       0.0022610268 -0.016086675 0.012232795 -0.011857826
0000c0 1f 10 c2 bb 45 ae b3 3a db 00 0b bc 0d 22 a6 bb
       -0.005922332 0.0013708553 -0.008484091 -0.005069977
0000d0 92 4f 03 80 2b be 00 80 40 ae 01 00 22 c9 02 00
       -3.04051e-40 -6.822e-41 1.54345e-40 2.55824e-40
0000e0 fe 78 07 00 1a 2f 04 00 64 78 02 80 ec 64 05 00
       6.86252e-40 3.84239e-40 -2.26859e-40 4.95381e-40
0000f0 cc 04 03 00 c3 2a 00 00 b7 5b 00 00 be 74 04 00
       2.77227e-40 1.534e-41 3.2901e-41 4.09221e-40
000100 85 1f 00 00 80 ba da bb b4 93 cf bb fc ae 67 bb
       1.1307e-41 -0.0066750646 -0.0063347463 -0.0035352102
000110 6c cc b6 bc f5 26 52 3a 8e e4 9c bb 15 fd 76 3c
       -0.022314273 0.00080166693 -0.004787988 0.015074988
000120 3e be 30 bc e1 04 8f 3b 7d 29 f6 3a 5b ba 4e 3a
       -0.010787545 0.0043645953 0.0018780675 0.00078860455
000130 a2 68 5c b8 15 79 e5 3b 38 88 b5 bb 91 42 1c bc
       -5.2549534e-05 0.0070029595 -0.00553992 -0.009537355
000140 74 f5 fa ba 28 ac 21 ba 80 4d dd 3a 89 73 d8 39
       -0.0019146637 -0.0006167316 0.0016884059 0.0004128481
000150 36 91 86 bb e9 ff 56 3b 57 bc d5 ba 15 21 99 bb
       -0.004106666 0.0032806343 -0.001630674 -0.004673133
000160 0c e6 ad 3b 6f f5 5c ba 3b 9f 04 3b b7 9a 2c bc
       0.0053069647 -0.00084289064 0.002023651 -0.010534934
000170 7f 3a 30 bc 4b e0 79 bb 17 03 64 b9 5c 7b 17 3b
       -0.010756134 -0.0038128074 -0.00021744925 0.00231143
000180 50 de a4 b6 d7 60 67 3a 61 2d 29 3c ac 85 bc 3b
       -4.9134615e-06 0.0008826381 0.010325761 0.0057532396
000190 c5 1c c1 bb 59 a2 20 3b 1f 0c 3d 3a f4 91 39 3b
       -0.005893322 0.002451083 0.0007211584 0.0028315755
0001a0 d7 1d 32 3c 18 f9 2d 3c 65 39 52 3a 6d 24 fe 3a
       0.010871372 0.010618471 0.0008019417 0.0019389518
0001b0 ee 88 47 bb a0 3b 90 3b 82 43 52 bc d2 de 60 3c
       -0.0030446607 0.004401639 -0.012833478 0.0137249995
0001c0 7c d3 21 bc 0a 96 87 bb 6a 69 4e b9 f2 77 db bb
       -0.009877082 -0.004137759 -0.0001968496 -0.006697648
0001d0 d3 8e a6 bb 20 62 0f 3c ef 7f 49 3c 0f 4b 90 b9
       -0.005082944 0.008751422 0.012298568 -0.00027521743
0001e0 23 91 29 ba 62 c0 ae ba c3 a0 f1 3b 83 2a 3d bc
       -0.00064684654 -0.0013332481 0.0073739006 -0.01154578
0001f0 42 1b 4b 3c 29 f1 44 bc 27 e4 b6 bb 2d 3c 05 bb
       0.0123966355 -0.012020388 -0.005581397 -0.0020330057
000200 b7 73 1d bc a3 05 88 bb be 6b 30 3c 3c 28 03 bc
       -0.009610108 -0.0041510626 0.010767875 -0.008005198
000210 9a f5 aa 3a a5 18 e3 3b 5d a7 aa bb a0 50 74 3b
       0.0013043166 0.006930428 -0.0052079395 0.0037279502
000220 2a 25 1f 3b 83 cd 82 3c a5 b0 52 3b 18 60 a0 3b
       0.0024283626 0.015967136 0.0032148745 0.004894268
000230 97 dc 9c bb 61 d8 5d b9 4f 5b 8e 3b b6 4c 2c bc
       -0.0047870385 -0.0002115681 0.004344381 -0.010516336
000240 ab d5 1d bc 76 ed 11 bb f2 c3 76 ba 38 eb 15 3b
       -0.009633462 -0.0022266782 -0.00094133534 0.0022875797
000250 94 b0 89 3a 1f 79 86 ba 48 8f 8c 3c bb 6f 8e 3b
       0.0010504895 -0.0010259486 0.017158166 0.0043468154
000260 4b c4 4b bc c7 29 f6 3b e0 cf 86 3b 97 11 f0 3b
       -0.012436937 0.0075123045 0.004114136 0.0073263156
000270 d3 4a 31 bb 73 82 ae 3c 54 f6 ec ba 7f ad f3 b9
       -0.0027052655 0.021302437 -0.0018078783 -0.00046477836
000280 e8 3a ae b6 1b dd a4 3b c6 09 6b bc 5c f4 d7 bb
       -5.1924617e-06 0.0050312406 -0.014345592 -0.006590409
000290 ae 07 79 bc 53 48 87 bb f9 4e 05 3a 82 8a 82 bc
       -0.015199585 -0.0041284948 0.0005085315 -0.015935186
0002a0 52 72 34 bc 97 14 2e b2 fd 4b 86 b2 97 6e 4c b1
       -0.011013584 -1.0132815e-08 -1.5634209e-08 -2.974877e-09
0002b0 f4 d9 ea 2f 76 1f 22 32 cd 1d a7 2c a3 7b 4f 2b
       4.2719217e-10 9.4367945e-09 4.749734e-12 7.3712754e-13
0002c0 48 06 4a af bb f6 86 2d 38 9d bf ae 8d 02 b7 ad
       -1.8374025e-10 1.5343607e-11 -8.713602e-11 -2.0805824e-11
0002d0 c8 ae c5 2e da 73 b4 2c ee d8 aa bc 15 7a 28 bc
       8.98957e-11 5.12877e-12 -0.020855393 -0.010283013
0002e0 9c d0 1b 3b fd 1a 09 bd 75 41 eb bb cd b3 ba ba
       0.0023775464 -0.033473004 -0.007179434 -0.0014244259
0002f0 3b c9 52 3c e2 23 5f 3b 19 3c 7a 3b 40 9b 0c bc
       0.01286536 0.0034048487 0.0038182794 -0.008581936
000300 bd 6c b8 3b de 36 33 39 25 ae b6 3b 25 6e 39 bc
       0.005628197 0.0001709121 0.005574959 -0.011317764
000310 32 08 45 bc b0 60 48 bb db f6 00 bc 05 bc 54 3b
       -0.01202588 -0.0030575208 -0.007871355 0.0032460701
000320 c7 c4 06 39 e8 41 1d 3c ed 33 96 3c 58 07 bd 3b
       0.00012852541 0.009598233 0.018335307 0.0057686977
000330 ac 8a 2f bc 53 e6 ef 3b 4b 26 2d 3b 8d 76 c9 3a
       -0.010714214 0.007321158 0.002642053 0.0015370414
000340 4a d1 3d 3c 2e ad da bb 2e 73 6c 3a fe 81 00 3c
       0.011585543 -0.0066734767 0.00090198487 0.007843493
000350 be 48 97 bb 4d f9 71 3b e7 d0 11 3c 6b 56 85 3c
       -0.004616826 0.0036922276 0.008899904 0.016276559
000360 c9 f1 0c 3a 7c 99 06 3c ef 14 42 bb f1 4f a8 3b
       0.0005376605 0.008215304 -0.0029614528 0.005136483
000370 95 0e b1 3b dc e6 b9 bb 8a 95 4b bc 2e 4b 90 3a
       0.0054033496 -0.0056732725 -0.01242579 0.0011008733
000380 7b aa ef 39 9b 44 6f 3b b7 cb 09 bb 50 bd fe 3a
       0.0004571265 0.0036509398 -0.0021025965 0.0019435082
000390 8b ff a6 bb fd ea 9f 3b 17 fa 8d ba ff 3d dc 3a
       -0.005096381 0.0048803077 -0.0010831979 0.0016803144
0003a0 61 28 4d 3a 33 38 07 3c 4f 2f 38 bc f6 40 2e bc
       0.00078261463 0.008253145 -0.011241748 -0.010635605
0003b0 f8 b7 c7 3a ff 1b d0 3a 3f 77 a3 3b 01 e9 07 3a
       0.0015237322 0.0015877484 0.0049885805 0.00051845616
0003c0 f2 2e 10 3b 7b 83 90 3c c7 c2 bf 3a ed 20 0e bc
       0.0022000638 0.01764082 0.0014630192 -0.008674842
0003d0 de bb 01 3c 8f 3d 85 3a 88 9c e6 3b 80 6f 32 3c
       0.007918326 0.0010165441 0.007037703 0.0108908415
0003e0 aa 2c a4 bb f4 90 b1 3a a0 bb 07 3c aa 75 73 bb
       -0.005010207 0.0013547228 0.008284479 -0.003714899
0003f0 b2 f4 b0 3b e0 ac 7e ba 77 18 69 3c d7 92 03 3b
       0.0054002637 -0.00097150914 0.014227024 0.0020076537

fc1.bias f4 [500]
000000 0f 4a b8 b6 d2 85 cf 35 82 50 90 36 1e 84 53 b6
       -5.492249e-06 1.5461649e-06 4.3009068e-06 -3.1518352e-06
000010 55 da a2 2d 0c 07 05 b6 49 4c 25 b6 f4 7a 35 b6
       1.8514227e-11 -1.9822646e-06 -2.463132e-06 -2.704267e-06
000020 26 af a4 b6 e7 a3 44 b5 d0 e4 49 36 ae 9d e8 b6
       -4.907971e-06 -7.32542e-07 3.008452e-06 -6.932495e-06
000030 53 68 6c b6 cd 95 8e 2d 9c f1 22 b5 a8 07 cd 35
       -3.5227465e-06 1.6210056e-11 -6.070129e-07 1.5275918e-06
000040 18 a9 e2 b5 cc 40 9c b5 6c 70 ac b5 00 f6 16 b6
       -1.6887525e-06 -1.1641764e-06 -1.2847718e-06 -2.2494933e-06
000050 92 70 79 35 12 b1 60 2d 9d 6d 9f b6 4a a5 57 36
       9.292354e-07 1.2772243e-11 -4.75133e-06 3.2133707e-06
000060 57 e1 95 35 c6 d8 8d 35 ad 77 90 b4 2d 8b 7a b5
       1.1166948e-06 1.0568408e-06 -2.6909166e-07 -9.3334785e-07
000070 05 15 34 35 48 2f a7 b5 cc a2 b4 34 e8 31 9f 36
       6.708581e-07 -1.245623e-06 3.3646063e-07 4.744379e-06
000080 80 66 5c a7 a8 ac 34 b5 98 b5 12 b5 e8 4c cd 33
       -3.0586699e-15 -6.7306473e-07 -5.465349e-07 9.5600456e-08
000090 d8 81 e7 35 80 53 39 35 60 d1 8f b6 a7 93 5c b6
       1.7248631e-06 6.903938e-07 -4.2861066e-06 -3.28685e-06
0000a0 d8 84 2b b6 28 8c 09 b6 77 a4 bf 36 0e ca 98 35
       -2.555831e-06 -2.0496173e-06 5.71139e-06 1.1383688e-06
0000b0 80 28 e9 31 73 a0 ff 32 24 ea 6d 2b d4 e7 6e 35
       6.785797e-09 2.9758871e-08 8.452425e-13 8.8999263e-07
0000c0 43 a5 56 36 5f 83 ce af b4 91 0b ac 0a a8 8a 36
       3.198468e-06 -3.7564526e-10 -1.983397e-12 4.132283e-06
0000d0 c5 38 9d 35 54 6a 1d 35 32 36 a8 2a 1c 66 06 b6
       1.1713934e-06 5.8641785e-07 2.98804e-13 -2.0026991e-06
0000e0 ac 0e 8e b5 ba 62 13 2e b0 f7 b9 b5 e4 44 82 b6
       -1.0584095e-06 3.3511617e-11 -1.3855661e-06 -3.882322e-06
0000f0 38 f6 11 b5 ba e9 cc b5 39 f9 8c 36 4d 23 81 33
       -5.4375005e-07 -1.5267208e-06 4.2013385e-06 6.013452e-08
000100 3e 52 00 b7 6e 06 c2 b3 99 25 d4 35 58 32 3e 35
       -7.648543e-06 -9.0349985e-08 1.5806173e-06 7.0853775e-07
000110 a0 33 7c 33 40 3b b5 29 bc 49 95 b5 cc 8a b0 2d
       5.8720275e-08 8.048293e-14 -1.1122825e-06 2.0070522e-11
000120 26 59 22 36 a4 51 fc 35 f6 7a fe b4 e0 db c3 b5
       2.4191772e-06 1.8799224e-06 -4.7400653e-07 -1.4592624e-06
000130 96 ed 7a 35 5e fa 03 b6 ad 1c a1 b5 91 2d 69 36
       9.347799e-07 -1.9666254e-06 -1.200378e-06 3.4746229e-06
000140 b0 84 ae 36 1a 8a 15 b7 ee 0d 43 35 71 78 14 36
       5.201051e-06 -8.913246e-06 7.266343e-07 2.2123825e-06
000150 31 61 2f b6 ca b9 08 36 4e 95 90 36 02 f8 eb 35
       -2.6133605e-06 2.0373723e-06 4.308916e-06 1.7581044e-06
000160 34 1f 91 a8 66 12 02 36 e7 4e 0d b6 6e 91 05 36
       -1.6111766e-14 1.9382219e-06 -2.1056564e-06 1.9903196e-06
000170 a6 62 5e b5 c8 81 1a 36 7c df c8 a8 2a b7 8a b6
       -8.2844997e-07 2.302333e-06 -2.2301381e-14 -4.1340436e-06
000180 06 c8 1d 36 28 88 58 34 68 0c 44 b4 98 b9 6a b6
       2.3511252e-06 2.0166101e-07 -1.8258436e-07 -3.4976747e-06
000190 f0 c2 1b b5 c3 04 33 b5 c8 b1 ea 34 98 f3 97 35
       -5.802567e-07 -6.6689626e-07 4.371525e-07 1.1321272e-06
0001a0 d5 bb f8 b4 f8 cc 08 b6 6e 05 94 2c 5e 1c 23 b1
       -4.6330265e-07 -2.0384887e-06 4.207016e-12 -2.3735747e-09
0001b0 b2 18 74 b6 4f 33 83 b5 d0 f7 01 36 6e ab cd 35
       -3.6373208e-06 -9.775193e-07 1.9366744e-06 1.5323583e-06
0001c0 2a 57 8a 36 60 a8 de 34 62 bf a4 b5 bc 04 db ad
       4.1228677e-06 4.147323e-07 -1.2274652e-06 -2.489952e-11
0001d0 ab 06 59 30 0b 67 17 b6 20 d5 da b3 a0 6e ba 35
       7.8953616e-10 -2.2560732e-06 -1.0190183e-07 1.3890276e-06
0001e0 34 05 38 34 b3 24 05 36 c6 ea 0a 36 7b d5 c4 aa
       1.7138228e-07 1.9839906e-06 2.0700259e-06 -3.4964726e-13
0001f0 c1 b8 df 35 46 bc 1f 35 3d bd 6e 35 5f 6a 0c 35
       1.6668565e-06 5.950609e-07 8.8937287e-07 5.2308854e-07
000200 f8 69 82 b6 57 4f 05 36 c0 3b b5 b4 94 c6 b8 b5
       -3.8866383e-06 1.9864726e-06 -3.375735e-07 -1.3766862e-06
000210 80 ec 44 34 3e e7 34 b5 86 79 05 36 8a 5a 27 36
       1.833996e-07 -6.7391727e-07 1.988928e-06 2.493764e-06
000220 2c 40 95 35 00 02 e3 b4 22 55 e4 35 be 88 d6 35
       1.1120042e-06 -4.22835e-07 1.7012101e-06 1.598404e-06
000230 34 b0 1e 36 0d 8b 96 36 7c 19 05 35 68 fd d4 b4
       2.3646398e-06 4.486536e-06 4.9583446e-07 -3.9672454e-07
000240 7c 33 8b 35 d9 01 b2 ac cc e2 64 b5 d4 51 39 36
       1.0371291e-06 -5.0592694e-12 -8.526665e-07 2.7614778e-06
000250 e0 ef 5b 35 e1 9d cf b1 b1 b2 c7 b5 b6 ca 55 36
       8.193292e-07 -6.0424417e-09 -1.4878661e-06 3.1857467e-06
000260 23 7b 25 2d 0a 33 0f 2c 12 90 8c b4 c3 71 34 b6
       9.406506e-12 2.0349855e-12 -2.6181857e-07 -2.6888308e-06
000270 47 4c 9e 35 f0 a6 f1 b4 93 80 77 b6 32 42 a5 b6
       1.1794117e-06 -4.501121e-07 -3.6880708e-06 -4.9250893e-06
000280 6b 11 44 b6 74 1e 58 35 2c 7b 1b b5 d7 90 a2 b6
       -2.9216415e-06 8.0510586e-07 -5.792124e-07 -4.844838e-06
000290 fa bc a5 33 fa b3 be b5 28 db 00 36 30 4c fe 35
       7.717786e-08 -1.4208483e-06 1.9201052e-06 1.8946648e-06
0002a0 b2 e7 c7 2a 6e c1 12 ae 44 7d 9b b5 b0 be ef 35
       3.5510272e-13 -3.3368357e-11 -1.1584857e-06 1.7862385e-06
0002b0 8e 7e d1 2c 2c 37 5a b6 60 43 79 b5 c4 a6 5c 36
       5.9541877e-12 -3.2516646e-06 -9.285777e-07 3.2879625e-06
0002c0 6c 50 15 b5 90 e5 8c 34 de 4b df 28 53 70 b4 35
       -5.5623855e-07 2.624406e-07 2.4790876e-14 1.3443736e-06
0002d0 84 89 25 36 73 62 ef 35 b0 8c 68 b6 be 42 d2 35
       2.466696e-06 1.783554e-06 -3.4652585e-06 1.5665644e-06
0002e0 ee 54 c1 aa 17 46 f9 2a 1c 95 19 b6 06 40 b1 a8
       -3.434262e-13 4.427992e-13 -2.288557e-06 -1.9678713e-14
0002f0 ca 05 bb 36 82 ea c6 35 aa c8 99 b5 90 87 73 b4
       5.573708e-06 1.48204e-06 -1.1457789e-06 -2.2680456e-07
000300 e8 53 cf b3 00 a6 1a 32 00 b2 68 32 35 01 62 36
       -9.654451e-08 9.001724e-09 1.354465e-08 3.3677327e-06
000310 ba 7f e0 ad d0 b8 e2 b4 10 76 53 34 3e 8b eb 35
       -2.5522574e-11 -4.223025e-07 1.9693857e-07 1.7549389e-06
000320 80 25 bc 34 1f 53 0d b5 1e b4 ac 35 f6 43 99 33
       3.5045014e-07 -5.264755e-07 1.286742e-06 7.13698e-08
000330 e0 e2 14 b5 19 ca 09 36 58 9c a9 b6 b8 29 2c b6
       -5.5464443e-07 2.0532227e-06 -5.0547933e-06 -2.565428e-06
000340 fe 19 62 b4 79 6b 0f b6 48 fe dd b5 04 22 49 b6
       -2.1057346e-07 -2.1371218e-06 -1.6539789e-06 -2.9971134e-06
000350 f3 d2 70 32 58 11 9b ad d0 00 20 35 3e 74 0f 36
       1.4017803e-08 -1.7629162e-11 5.9605827e-07 2.1376322e-06
000360 e6 98 40 35 01 e5 2e af 15 a2 ac b5 60 b9 d8 b3
       7.174807e-07 -1.5906566e-10 -1.2862171e-06 -1.0092003e-07
000370 02 17 98 b5 74 c3 7f b5 80 b7 5f 33 cc 27 c1 33
       -1.1331579e-06 -9.5279324e-07 5.2088126e-08 8.994502e-08
000380 d0 b7 fc b3 a1 6f 81 b5 5e 4c 97 b6 de b0 28 36
       -1.17681e-07 -9.643737e-07 -4.509041e-06 2.51369e-06
000390 80 65 48 34 9b a4 04 b5 14 67 3b ab e2 67 81 b7
       1.8663377e-07 -4.9413364e-07 -6.6578795e-13 -1.5426373e-05
0003a0 66 08 82 34 48 5a f9 b5 9a 77 70 35 88 a6 4d b6
       2.4220498e-07 -1.8578221e-06 8.958101e-07 -3.0644314e-06
0003b0 fe 40 92 b5 6e 43 35 b6 cc 31 bf b5 98 d5 ee b4
       -1.0896763e-06 -2.701035e-06 -1.4245102e-06 -4.4486364e-07
0003c0 4c 6b 48 b6 d5 09 8e b4 54 db 87 b4 7b 1e eb b5
       -2.9864777e-06 -2.6456715e-07 -2.5305292e-07 -1.7517735e-06
0003d0 45 9c 8c 27 d0 be 1d b5 67 ad b7 36 17 c2 82 36
       3.9027234e-15 -5.8764726e-07 5.4740117e-06 3.896897e-06
0003e0 d4 e5 4e 35 de dd 0e b5 98 6d d0 b4 58 ac 5c 36
       7.7075424e-07 -5.322198e-07 -3.882276e-07 3.2882872e-06
0003f0 71 41 7b b7 82 40 f6 34 a6 21 b2 35 87 19 1a 36
       -1.4976003e-05 4.5868006e-07 1.3271826e-06 2.2962647e-06

bn1.weight f4 [500]
000000 55 49 68 3d 41 d7 ce 3d 0d c6 f0 3d d4 be a7 3d
       0.05671056 0.1009965 0.11756525 0.081906945
000010 e0 c9 03 80 bc 45 76 3d 1a 04 e4 3c 31 1e 43 3d
       -3.47926e-40 0.060125098 0.027833987 0.047636215
000020 0d fc a4 3d 57 29 a6 3d ba 33 a0 3d 18 64 8c 3d
       0.08055887 0.08113354 0.07822366 0.06855029
000030 f0 00 f9 3d 92 4a db 32 0c 85 ce 3d 05 40 a7 3d
       0.12158382 2.5528866e-08 0.100839704 0.08166508
000040 dd 4a aa 3d c0 c0 1e 3d 10 7f 91 3d 64 0f 87 3d
       0.0831506 0.03875804 0.071043134 0.065947324
000050 c8 93 3b 3d 6c 19 00 00 ef 6b 15 3e 60 ea cb 3d
       0.045795232 9.12e-42 0.14591955 0.09956813
000060 60 52 d8 3d 84 49 3f 3d ba cc e6 3d 8e ee ba 3d
       0.10562587 0.04670097 0.11269517 0.09127532
000070 49 33 b6 3d 48 1c 93 3d 55 1c 06 00 f4 c6 04 3e
       0.088965006 0.071831286 5.61177e-40 0.1296652
000080 cb fc 00 00 ff 4f 17 3e 65 13 e2 3d ee 7c c7 3d
       9.0685e-41 0.1477661 0.110388555 0.09740625
000090 d3 c3 81 3d 51 4b cb 3b 3d fd e1 3d 3b 11 b6 3d
       0.06336179 0.006204047 0.110346295 0.08890005
0000a0 e2 1f 94 3d 27 71 f9 3d 9b d6 70 3d 08 7d b4 3d
       0.07232644 0.12179785 0.058798414 0.0881291
0000b0 1e 79 be 3d f0 54 40 3c c7 e0 02 80 8c a5 08 3e
       0.09300445 0.011739001 -2.64306e-40 0.13344401
0000c0 b4 8b 72 3c a1 27 07 00 73 93 03 80 ef 32 b0 3d
       0.014803816 6.57065e-40 -3.28401e-40 0.08603465
0000d0 05 20 c5 3d 06 9e d7 3d e5 31 01 00 8e ab ac 3d
       0.09625248 0.105281875 1.09734e-40 0.08431159
0000e0 85 8d 28 3c 36 9f 04 80 e2 0a ba 3d 1a 49 de 3c
       0.010287647 -4.24456e-40 0.09084107 0.027134467
0000f0 37 a4 d7 3c 63 3f 83 3d 81 16 e2 3d e7 84 07 00
       0.02632342 0.064085744 0.110394485 6.90525e-40
000100 e4 af 02 00 94 30 04 00 94 be e0 3d f4 3d 82 3d
       2.46769e-40 3.84769e-40 0.1097385 0.06359473
000110 1b d0 e4 3c b9 4c 07 00 20 22 78 3d b6 16 04 00
       0.027931264 6.70371e-40 0.06057942 3.75489e-40
000120 b0 a2 08 3d b2 d5 b9 3d 0b c5 d6 3d 72 7c 0c 3e
       0.033358276 0.09073962 0.10486802 0.13719347
000130 1b ad ad 3d 0e 07 60 3d ee c0 b3 3d 71 f3 c5 3d
       0.08480283 0.054694228 0.08777033 0.096655734
000140 62 f8 d7 3d 05 2d dd 3d d0 14 da 3d 71 23 b0 3d
       0.10545422 0.107996024 0.10648501 0.0860051
000150 ab 90 af 3c f0 53 02 3e a5 2d a9 3d e5 15 6e 3d
       0.021431288 0.12727332 0.08260659 0.05812635
000160 b9 57 00 00 5b f5 b8 3d d8 c7 d6 3d 6d 5c a3 3d
       3.1469e-41 0.09031173 0.10487336 0.07976613
000170 03 46 86 3c 84 d5 db 3d 92 8d 03 00 59 75 74 3d
       0.016390806 0.10734084 3.26292e-40 0.059682224
000180 fd 03 9b 3d 6f 8a a2 3d 29 95 cc 3c 72 ab bd 3d
       0.0756912 0.0793656 0.024973469 0.09261216
000190 7e 9f d0 3d be 6e de 3d 9c 69 6d 3d 3f d1 c5 3d
       0.10186671 0.10860966 0.057962045 0.09659051
0001a0 af b8 c6 3d 22 63 9f 3d a5 e6 01 00 2b fa 01 00
       0.09703194 0.0778258 1.74575e-40 1.81579e-40
0001b0 5f 25 cf 3d 64 3a c3 3d fc 1e 6e 3d 9d 1a 65 3d
       0.1011455 0.095326215 0.058135018 0.055933584
0001c0 17 d8 02 00 68 6f c2 3d fb 8f 26 3d e4 cd 01 00
       2.6119e-40 0.09493905 0.040664654 1.65695e-40
0001d0 e3 6e 00 00 3e 1f ac 3d a6 8e b7 3d 3b 8d bf 3d
       3.9779e-41 0.084043965 0.08962755 0.093531094
0001e0 fc 46 02 80 8e 8f 80 3c 8a a6 5f 3d e0 bf 02 80
       -2.09135e-40 0.015693452 0.054602183 -2.52503e-40
0001f0 aa d9 fd 3d 83 d4 b7 3d aa fc 5c 3d 3d 0c 46 3c
       0.12395032 0.0897608 0.053951897 0.012087879
000200 50 7a 80 3c 5b ca 72 3d 4d 5c b1 3d 70 a2 f0 3d
       0.015683323 0.059275012 0.08660183 0.117497325
000210 e5 a7 d8 3d 92 c1 da 3d 53 70 be 3d 91 39 00 3d
       0.10578898 0.10681452 0.09298768 0.0313049
000220 74 ab 8c 3d 21 83 b6 3d d5 d7 20 3d 9a b6 3e 3c
       0.068686396 0.089117296 0.039268333 0.011640215
000230 8f e7 28 3d bf d2 f6 3d b3 36 dd 3c e4 6b d7 3d
       0.041236456 0.120519154 0.027003622 0.105186254
000240 25 d0 8e 3d 11 d7 06 00 da be 92 3d 44 41 10 3e
       0.06973294 6.28164e-40 0.07165308 0.14087397
000250 c3 26 03 00 87 3c 02 00 70 c1 5b 3d 55 98 c5 3d
       2.89412e-40 2.05384e-40 0.053651273 0.09648196
000260 83 88 06 80 b2 24 05 80 22 4c 01 00 1c 6b 9b 3d
       -5.99984e-40 -4.72341e-40 1.19147e-40 0.07588789
000270 a5 37 b8 3d 8f 60 c8 3d 0e 6b bd 3d ff 92 ac 3d
       0.08994988 0.09784042 0.09248935 0.08426475
000280 77 2b 1c 3d eb c1 ad 3d dd 41 0a 3e 6f db a0 3d
       0.03812739 0.084842525 0.13501687 0.07854354
000290 62 0b 06 00 8e b9 14 3e f7 eb 88 3d 70 b1 87 3d
       5.55096e-40 0.14523908 0.06685632 0.066256404
0002a0 8f dd 01 00 6b 30 02 00 64 47 cb 3d 1e be da 3d
       1.71316e-40 2.0104e-40 0.09925726 0.10680793
0002b0 c6 4e 00 00 43 44 88 3d 36 66 98 3d b0 c1 ee 3d
       2.8259e-41 0.06653645 0.0744137 0.11658037
0002c0 45 63 9e 3d 3e e0 de 3d 34 31 06 00 c9 26 76 3d
       0.07733778 0.108826146 5.68664e-40 0.060095582
0002d0 02 d0 a9 3d c6 fa de 3d a0 9f ad 3d 3a b6 84 3d
       0.082916275 0.10887675 0.08477712 0.064800695
0002e0 45 5e 03 00 cd cf 02 00 1d 4a 81 3d b1 81 04 00
       3.09324e-40 2.58216e-40 0.06312964 4.13866e-40
0002f0 0c bb e9 3d 73 c7 85 3d 25 1c a5 3c 67 7f f2 3d
       0.114126295 0.065321825 0.020155022 0.11840706
000300 a7 b7 06 80 6b 49 6c 3d 72 f7 04 00 0b 42 df 3d
       -6.16895e-40 0.057687204 4.56109e-40 0.109012686
000310 20 04 00 00 86 79 e3 3d ff f4 be 3d d7 1a ae 3d
       1.48e-42 0.11107163 0.09324073 0.08501213
000320 c2 5d b4 3d 08 98 1d 3d 33 46 ce 3d f3 8a d9 26
       0.088069454 0.038475066 0.10071983 1.5095062e-15
000330 96 d5 3b 3d 09 0d 08 3d e3 9d e4 3d a7 08 c4 34
       0.04585799 0.033215556 0.11162927 3.651414e-07
000340 2e 1b 74 3d aa 9d 72 3d b4 38 1c 3c d3 22 0f 3e
       0.059596233 0.05923239 0.009535003 0.13978128
000350 cc 4f 05 80 86 08 00 00 25 cc d5 3d a6 8d b0 3d
       -4.87803e-40 3.058e-42 0.10439328 0.08620767
000360 06 3a c2 3d 99 bc 03 00 19 86 1a 3e 5a 3f dd 3d
       0.09483723 3.43163e-40 0.15090217 0.10803099
000370 ee e5 dc 3d e4 e8 a0 3d e3 df ef 3d 87 5a ae 3d
       0.10786043 0.0785692 0.11712625 0.085133605
000380 d0 b4 a3 3d 1d d2 97 3d 00 c1 92 3d b4 80 8f 3d
       0.079934716 0.07413123 0.07165718 0.0700697
000390 27 70 e9 3d b2 ef 38 3d de da 01 80 51 6b 06 00
       0.113983445 0.045150466 -1.7035e-40 5.89511e-40
0003a0 90 cb 3d 3d 33 70 bf 3d 55 e3 11 3c c7 4b ab 3d
       0.04633671 0.09347572 0.008904298 0.08364063
0003b0 d7 5e a7 3d 27 6d 7b 3d 66 42 95 3d 62 a1 d9 3d
       0.08172386 0.061383393 0.07288055 0.106264845
0003c0 17 78 d6 3d de 06 87 3d 12 af a6 3d 4e 51 fc 3d
       0.10472124 0.06593107 0.08138861 0.12320195
0003d0 c9 e7 02 80 1b 99 a0 3d 1a 0d 02 80 a7 39 a1 3d
       -2.6682e-40 0.078417026 -1.88371e-40 0.078723244
0003e0 2b ee fe 3c 62 78 fe 3d 67 ff 03 00 94 85 a1 3d
       0.031119427 0.12425305 3.67128e-40 0.07886806
0003f0 6e 86 02 00 a2 34 b4 3b f2 54 59 3d ed a4 82 3d
       2.31895e-40 0.0054994384 0.053059526 0.06379113

bn1.bias f4 [500]
000000 ef 3b 26 ba f9 8e c5 bc f0 c2 1a bd bc 03 12 3b
       -0.0006341328 -0.024116026 -0.037783563 0.0022280058
000010 4b 02 01 80 b6 a9 89 3d c8 a1 ed 3c e1 3e 34 3d
       -9.2658e-41 0.06721823 0.029007807 0.04400528
000020 7b b7 e4 b9 3f cc 40 3a 41 50 9c bc 23 47 66 3d
       -0.00043624252 0.0007354654 -0.019081237 0.056220185
000030 ea 85 bb bc 64 6f 2d 37 49 6d af 3d e1 7c 92 3d
       -0.022891004 1.0337539e-05 0.08565766 0.07152725
000040 92 d6 d1 bc 1c da 78 3d d6 48 7c 3d 70 11 c7 bc
       -0.02561501 0.06075488 0.0615929 -0.024300307
000050 f2 38 48 3d b8 d1 02 80 67 9f 4a 3d f8 c8 af 3d
       0.048882432 -2.58904e-40 0.049468424 0.085832536
000060 0e c9 a7 3b de 4d 8b 3d 86 59 01 3a bf a8 81 3a
       0.005120403 0.06801961 0.00049342995 0.0009892209
000070 75 14 95 bc d2 f0 93 3b c4 4b 00 80 ea 5e 45 3d
       -0.018198231 0.004514792 -2.718e-41 0.04818622
000080 f3 ab 01 80 a6 47 95 3d ee 17 57 3d 24 d3 21 3b
       -1.53519e-40 0.072890565 0.052513056 0.00246925
000090 2e 85 53 3b 36 de 19 3c 8e 60 eb bc 28 8f 7a bc
       0.0032275426 0.009391358 -0.028732564 -0.01529292
0000a0 16 c8 34 3b 65 5e 39 3d 0e cb 26 bc 52 e8 ef 3c
       0.002758508 0.045256037 -0.010180248 0.029285584
0000b0 44 89 f6 bc 6f 9b 06 bb 0c 25 00 80 a2 6f 3c 3d
       -0.03009475 -0.0020539423 -1.329e-41 0.0460049
0000c0 07 d2 ca 3c 91 d0 02 80 1a 80 01 80 3a 39 ca bc
       0.024758352 -2.5849e-40 -1.3779e-40 -0.02468549
0000d0 ad 88 a2 3d 10 d4 67 3d 8a cb 03 80 20 a5 9a 3d
       0.07936225 0.056598723 -3.48523e-40 0.07551026
0000e0 d1 a3 96 3c 6f b2 02 80 54 bb c5 bc 9a 0e 0e 3d
       0.01838866 -2.47681e-40 -0.024137177 0.034681894
0000f0 21 2b 2a 3d 3b cd 90 bc fa c5 83 3b a3 e9 01 80
       0.041545037 -0.017675987 0.0040214034 -1.75649e-40
000100 78 29 00 80 9a 8d 06 80 80 58 a7 3d 39 0e a0 3d
       -1.4876e-41 -6.0181e-40 0.08171177 0.07815213
000110 22 5d 25 3d fd 20 03 80 75 a6 50 3d fe a5 02 80
       0.04037202 -2.8734e-40 0.050939996 -2.43218e-40
000120 d8 6c 43 3d ec e1 a2 3d 84 fd f3 bc c5 ac aa 3d
       0.047711223 0.079532474 -0.029783972 0.083337344
000130 8c 5e 8d 3d ea ba 95 3a 2e c2 6c 3b 7d fa ce 3b
       0.06902799 0.0011423503 0.0036126482 0.0063164816
000140 f0 ca 6a 3b d6 8a a3 3d b8 85 b7 3d 83 43 9f 3b
       0.0035826527 0.07985465 0.08961052 0.004860343
000150 c3 df f7 3c 48 ee 10 bd bb 6d 9c 3d 95 b9 9b 3a
       0.030258065 -0.035383493 0.07638117 0.0011880869
000160 e0 c4 00 80 4a a6 87 3b 7c d8 ad bc a4 09 80 3d
       -7.0625e-41 0.0041396962 -0.021221392 0.06251839
000170 69 6f de 3c 1d fa 65 3d 1d 32 06 80 e9 3c 6c 3d
       0.027152734 0.05614673 -5.6899e-40 0.057675276
000180 75 aa 89 3d c2 49 59 3b 85 0e fc 3c ac eb d0 bc
       0.06721965 0.0033155535 0.030768642 -0.025503002
000190 fa cb ae 3d 3d 41 48 3b 10 eb 35 bc 27 b0 5d 3b
       0.08534999 0.0030556463 -0.011103407 0.0033826919
0001a0 41 be a3 3d ea 9a 6f 3b 76 1a 05 80 0e 47 06 80
       0.079952724 0.0036560842 -4.6867e-40 -5.76503e-40
0001b0 c7 35 3d 3d d0 ea d5 bc 5c ff 60 3d 84 ab 98 3d
       0.046193864 -0.026112944 0.05493103 0.07454589
0001c0 8c 5b 02 80 12 a4 a8 3d 30 98 4c 3d b1 b2 00 80
       -2.16512e-40 0.08234419 0.049949825 -6.4102e-41
0001d0 f0 c6 02 80 69 bf 95 3d 8e 07 02 ba b4 f8 a5 bc
       -2.55036e-40 0.07311899 -0.0004960232 -0.020260192
0001e0 f6 85 02 80 2b 01 d2 3c 61 b0 00 3b 01 a0 03 80
       -2.31727e-40 0.025635323 0.001963638 -3.32905e-40
0001f0 a3 d0 a9 bc 4e 3c 98 3d 7c 7f ab 3d c6 e2 ae 3c
       -0.020729369 0.07433377 0.08373925 0.021348368
000200 7d d8 a5 3c de e6 55 ba 7e 31 bf bc d4 43 2e 3d
       0.020244831 -0.0008159707 -0.02333903 0.042545155
000210 1b 75 fc bc 1c be b8 3d f3 20 a8 3d 96 3a 0d 3d
       -0.030817559 0.090206355 0.082094096 0.0344797
000220 5f 33 b2 bc dc e1 b6 bc e1 72 50 3d 82 3e 7f 3c
       -0.021753011 -0.022324495 0.050890807 0.015578868
000230 14 38 89 3d ba a7 34 3d 61 e3 25 3d a3 be d9 bc
       0.06700149 0.04410527 0.04050005 -0.02658016
000240 c8 e5 88 3d 64 aa 02 80 dd 20 57 3b ec c5 1d 3d
       0.06684452 -2.44796e-40 0.0032825985 0.03851883
000250 e5 d5 02 80 8d b8 01 80 17 a4 9a 3b 7d af 01 bd
       -2.60402e-40 -1.5804e-40 0.004719268 -0.0316615
000260 75 56 02 80 8e 47 02 80 dd cf 84 82 4b 56 76 3b
       -2.14686e-40 -2.0934e-40 -1.9514964e-37 0.0037588056
000270 89 c2 34 3b 7e f5 99 3b c5 c5 99 3d f7 9b c3 3d
       0.0027581772 0.0046984544 0.07508425 0.09551232
000280 e0 5c 23 3d aa 00 b3 bc b8 b0 26 3d bd c8 88 3b
       0.039883494 -0.021850903 0.040695876 0.0041743205
000290 9b ae 05 80 36 5c 25 3d b6 18 69 3d 28 90 da 39
       -5.21814e-40 0.040371142 0.05690833 0.00041687605
0002a0 c2 2d 06 80 19 43 02 80 39 43 9d bc 7f dd 03 3d
       -5.67428e-40 -2.07741e-40 -0.019197093 0.032193657
0002b0 0e 51 02 80 2d 2f 78 3d 6b a6 80 3d e5 fc 34 3d
       -2.12748e-40 0.060591865 0.06281742 0.04418649
0002c0 3c e6 92 3d dc 9c 28 3d 31 a2 04 80 98 ce 6e 3d
       0.0717282 0.041165218 -4.25525e-40 0.058302492
0002d0 ab a6 c5 bc e0 32 f1 bc 8b 71 9d 3d 0d 79 5f 3d
       -0.024127325 -0.029443204 0.07687672 0.054558802
0002e0 08 43 02 80 7d f7 03 80 29 7e 87 3d 8c 5a 00 80
       -2.07717e-40 -3.64289e-40 0.0661586 -3.2482e-41
0002f0 2a 1e f5 bc fe c1 6e 3d 0c 56 ed 3c b7 f2 87 3d
       -0.02992161 0.058290474 0.028971694 0.06638091
000300 9d 2a 02 80 a1 f9 56 3b 1c 0d 01 80 a5 41 ae bc
       -1.98958e-40 0.00328026 -9.6538e-41 -0.021271536
000310 44 76 59 9b 9b 8f d4 bc 0f b2 ab 3d 13 a2 b7 bc
       -1.7988033e-22 -0.025947383 0.08383571 -0.02241615
000320 b2 99 ce bc d3 8e 74 3d 75 72 ef bc 28 6e 85 31
       -0.025219772 0.05970652 -0.029229382 3.8833328e-09
000330 8f 86 9b 3d b3 73 1c 3d 3f 7f 1b 3d 8f b5 15 b3
       0.075940244 0.038196277 0.03796315 -3.4856892e-08
000340 24 99 59 3d 04 2e 95 bc 19 a7 80 3c 05 65 11 3d
       0.053124562 -0.018210419 0.015704678 0.03549673
000350 3c d6 02 80 62 1a 01 80 7b e7 5d 3b cf 0b 86 bc
       -2.60524e-40 -1.013e-40 0.0033859897 -0.016363053
000360 53 56 57 3b 5b dd 01 80 a2 48 5a 3d 68 f3 aa bc
       0.003285785 -1.71243e-40 0.053291924 -0.020868018
000370 04 8d 52 3b 9a ff 8c 3d 22 c0 41 3d 7d 5e 9f 3d
       0.003212751 0.0688469 0.047302373 0.07781694
000380 41 7d 9c bc b2 76 85 3d c4 10 95 3d 46 29 7c 3d
       -0.019102694 0.0651678 0.072785884 0.0615628
000390 ba 4c 71 3d 6d 6d 57 3d 14 ef 03 80 42 93 00 80
       0.058911063 0.05259459 -3.61272e-40 -5.2826e-41
0003a0 38 76 3e 3d fa 1b ab 3d a1 0c 5f 3c 20 ef 9c 3d
       0.04649946 0.083549455 0.013613851 0.07662797
0003b0 26 bf 9d 3d 66 5c 69 3d 89 50 85 3d b3 28 84 3d
       0.07702474 0.056972884 0.065095015 0.06453075
0003c0 b1 15 bb 3a 4b 00 83 3d ad f0 c4 bc ce 87 86 3d
       0.0014273432 0.0639654 -0.024040544 0.065688714
0003d0 d4 e5 01 80 a6 a1 a7 bc fc 22 03 80 72 1e d2 bc
       -1.74282e-40 -0.020462822 -2.88057e-40 -0.025649283
0003e0 30 e0 05 3d 6c 66 04 bd 5d 11 01 80 f4 35 f4 3a
       0.032684505 -0.03232424 -9.8064e-41 0.0018631802
0003f0 5c 86 05 80 33 35 17 3c fc 61 90 bc c3 48 9d bc
       -5.07377e-40 0.009228992 -0.017624848 -0.019199735

bn1.running_mean f4 [500]
000000 02 61 13 3b be 34 4c 3c c2 82 56 3c 87 a1 41 3a
       0.002248824 0.012463747 0.0130926985 0.0007386435
000010 5a 24 52 ab 6c d8 e5 ba ce 11 17 3b 57 22 fc 3b
       -7.4657435e-13 -0.0017535812 0.0023051384 0.0076945233
000020 fe e8 1a 3b 1d c6 97 39 25 a6 34 3c 34 5d 4c 3c
       0.002363741 0.0002894857 0.01102594 0.012473393
000030 70 67 63 bc 4b 4b ab ae a9 fc bc 3b 16 51 5f 3c
       -0.013879642 -7.7895544e-11 0.005767424 0.013630172
000040 5f f0 50 3c b0 e0 89 b6 b0 ba 43 3c 7e 2c 29 3c
       0.012752621 -4.1090752e-06 0.011946365 0.010325549
000050 14 64 3f 3c 06 1d 1c ab 5b 26 69 bc 1a 00 d3 3b
       0.011681575 -5.546261e-13 -0.014230336 0.006439221
000060 e3 8d 7b 3a ae 9f 0f 38 91 72 a4 3a 8c 71 0e 3b
       0.0009596033 3.424257e-05 0.001254635 0.002173516
000070 8d 08 30 bc 63 f1 1c 3a 16 17 9f b2 70 19 69 bc
       -0.010744226 0.0005986897 -1.8520534e-08 -0.014227256
000080 4c 2f 7f 25 fb 9e 45 bc 06 51 1a bc b4 47 b9 3a
       2.2133749e-16 -0.01206183 -0.009418732 0.0014135749
000090 34 2a 61 3b 3f 91 d9 b9 cb 13 68 3c d6 72 0c bc
       0.003435743 -0.00041497682 0.014164875 -0.008572301
0000a0 c6 d0 f0 3a 5a b2 6b bc c2 e4 01 bc 4a 3f 29 bc
       0.0018372766 -0.014385784 -0.007928075 -0.010330031
0000b0 3f dd 4c 3c e7 fc fa 3a 54 94 04 a9 1d c0 68 bc
       0.012503921 0.0019148857 -2.9438542e-14 -0.01420596
0000c0 b7 f7 b8 38 7b 08 a9 2d 28 d5 ac 29 47 33 4a 3c
       8.819944e-05 1.9216842e-11 7.675311e-14 0.012341327
0000d0 2a 80 5a 3c 5d bd 30 bc 0d 4e 96 a8 98 65 4f 3c
       0.013336221 -0.010787335 -1.6687195e-14 0.012658499
0000e0 96 74 57 39 8f 8f 04 ac 4a 7e 2d 3c b8 b7 75 3a
       0.0002054743 -1.883802e-12 0.010589192 0.00093733845
0000f0 e6 99 e4 ba 44 ce 34 3c 48 b4 fb 3a a4 1c 03 31
       -0.0017440885 0.011035506 0.0019203508 1.907929e-09
000100 57 1c cc 34 98 61 cc 31 eb 10 22 3c a8 8b 60 bb
       3.801858e-07 5.9482765e-09 0.009891729 -0.003426293
000110 c7 80 bc 3a e4 88 ae a8 c6 fc 10 3c cd 90 82 ab
       0.001438164 -1.9377247e-14 0.008849328 -9.277246e-13
000120 6f 16 ab 3b 78 fe 6e 3c 60 3f 3f 3c ee f4 23 bc
       0.00522118 0.014587037 0.011672825 -0.010007126
000130 f6 44 47 3c 45 38 e6 3a ca f2 f7 b9 27 f3 05 3b
       0.012162438 0.0017564377 -0.00047292403 0.002043912
000140 16 e4 20 3b 06 01 ba 3b 8f 43 16 3c 15 7b 01 3b
       0.0024550012 0.0056763915 0.009171381 0.00197572
000150 4b 39 8f 39 55 8f 54 3c 44 c0 4e 3c 71 3c cc 3a
       0.00027317772 0.012973626 0.012619082 0.0015581978
000160 0f 23 83 26 be f8 e6 3a a6 b9 53 bc c8 9b e6 bb
       9.099454e-16 0.0017621738 -0.01292268 -0.0070376135
000170 f3 c3 13 ba 01 51 09 bc 7a 73 b6 26 e8 78 29 3c
       -0.00056368037 -0.008381129 1.2660087e-15 0.010343768
000180 50 7d 58 3c 1e b4 ee 3a 53 61 04 3b 6b 04 52 3c
       0.013213471 0.0018211638 0.0020199611 0.012818436
000190 36 5e 8b 3c 61 24 ad 3a e2 4c 28 3c 5e 2b 85 3a
       0.017012697 0.0013209694 0.010272237 0.0010160019
0001a0 81 9f 80 3c 3f 96 7f 3a c0 8c 41 a9 4d ec e3 2e
       0.015701057 0.00097498664 -4.297669e-14 1.036474e-10
0001b0 bf 31 4d bc 71 58 57 3c aa 41 4c 3c 32 31 c5 bb
       -0.012524067 0.013143645 0.012466827 -0.0060178274
0001c0 46 70 cc b4 03 3a 42 3c b3 b1 c3 3b 1e 65 ed 2b
       -3.807965e-07 0.011854651 0.005972111 1.6867928e-12
0001d0 48 74 52 2d 33 bb a6 3b d7 f2 c7 3a f1 fd 5c 3c
       1.1962938e-11 0.005088234 0.0015254867 0.013488279
0001e0 09 1b 33 b2 4a 3a 35 39 77 72 24 3b 3c e1 0b a8
       -1.0425318e-08 0.0001728322 0.002509264 -7.76489e-15
0001f0 71 89 79 bc c9 a4 6f 3c 5d 67 85 bb 18 fb bd ba
       -0.0152305225 0.01462669 -0.0040711598 -0.0014494387
000200 73 94 b3 3a cf c6 11 3b 07 2b 42 3c a1 ad 3a bc
       0.0013700858 0.0022243743 0.011851079 -0.011393935
000210 5e 4d 82 3c 37 e7 02 3c 4f 05 51 3c 74 78 d3 3b
       0.015906032 0.007989696 0.012757613 0.006453568
000220 d9 1a 2f 3c f6 07 43 3c d6 e1 71 3b 76 93 91 3a
       0.010687553 0.0119037535 0.003690829 0.0011106569
000230 18 53 b8 bb d1 e8 34 bc 9c 2b 78 bb d2 5c 5e 3c
       -0.00562514 -0.011041836 -0.003786779 0.013571935
000240 9a 22 cf 3b ec a7 b0 2a fe 87 67 3a c0 92 5b bc
       0.0063212635 3.13804e-13 0.0008832215 -0.013401687
000250 8e f5 3f b4 66 c4 95 2f 6c b9 bc 3a 88 ae 68 3c
       -1.7877593e-07 2.7242492e-10 0.0014398522 0.014201768
000260 85 76 e0 aa bc dd 04 aa 3b 9e 8a 32 35 01 fb 39
       -3.9872633e-13 -1.1800885e-13 1.613727e-08 0.0004787535
000270 0d 40 a1 3a 5c 6e a4 b9 02 e3 65 3c 8d a1 0c ba
       0.0012302414 -0.00031362742 0.014031174 -0.0005364649
000280 a8 ce 15 3c 13 ee 54 3c a3 94 87 bc fa a7 66 3b
       0.009143509 0.012996214 -0.016550368 0.0035195337
000290 e7 1f b9 b1 44 dc 54 bc 3c fc f2 bb 93 a0 aa 3a
       -5.3878355e-09 -0.012991969 -0.0074153226 0.0013017826
0002a0 bc 9c a5 28 e2 72 48 2c 74 54 4d bc 2c 31 34 bc
       1.8386653e-14 2.8485482e-12 -0.012532342 -0.010998052
0002b0 a2 0a c6 aa 40 a4 0d 3c b1 9c 87 3c ac dd 4f bc
       -3.5179243e-13 0.008645117 0.016554208 -0.012687128
0002c0 90 ac 23 37 3d b3 3a bc 44 d4 e3 a6 55 e7 1d 3c
       9.755735e-06 -0.011395273 -1.5808824e-15 0.009637673
0002d0 80 8c 3a 3c 72 a0 5d 3c 79 37 7e 3c 94 40 2b 3c
       0.011386037 0.013527023 0.015516155 0.010452408
0002e0 9e ac 84 28 2d 02 d7 a8 57 c1 34 3c 08 ec 89 26
       1.4729805e-14 -2.3870739e-14 0.011032424 9.570261e-16
0002f0 46 e1 84 3c cf e1 31 3c 52 04 f9 3a 63 40 fd bb
       0.0162207 0.01085706 0.001899848 -0.0077286228
000300 be 69 52 32 11 ec 1f 3b 92 31 b2 b2 d5 2e 49 bc
       1.2247652e-08 0.002440218 -2.074447e-08 -0.012279232
000310 02 5f d7 2b ba 6b 7f 3c 20 2c 79 3c 21 82 48 3c
       1.5303039e-12 0.015589649 0.015208274 0.012238056
000320 cb 7b 51 3c 5e 73 a5 bb da f7 61 3c 84 03 26 b1
       0.012785862 -0.005049153 0.013792003 -2.4158178e-09
000330 1c 1a 74 bb 39 4d ba 3b 15 cc 61 bc 1a 3c 98 34
       -0.0037247008 0.005685475 -0.013781567 2.8355936e-07
000340 7f 03 47 3c a8 3a 1f 3c 8b 6e 9a b9 43 7e 52 bc
       0.01214683 0.009718575 -0.0002945553 -0.012847486
000350 f9 d0 2d b0 ae 3d c3 2b 81 5e 2a 3b cc 45 39 bc
       -6.3234e-10 1.3872703e-12 0.002599627 -0.011308145
000360 04 4e 7b 3b e0 ea ad ab 20 e6 55 bc f8 94 49 bc
       0.0038346061 -1.235758e-12 -0.013055354 -0.012303583
000370 be 64 75 3b 05 ba 3a 3c b8 59 68 bc 9d a4 52 3c
       0.003744408 0.01139689 -0.014181547 0.01285663
000380 be 5c 3e 3c b4 8b 89 3c e1 e8 05 3c 8a 89 08 3c
       0.011618791 0.016790248 0.008173198 0.008333573
000390 b7 e7 1a bc 40 9c 9e 3b cc 44 08 29 c6 08 5b 35
       -0.009454659 0.004840404 3.0257738e-14 8.1596625e-07
0003a0 54 ac c4 3b 4d 0c 3c 3c c3 b6 93 b9 fb 3e 5e 3c
       0.0060019884 0.011477542 -0.00028174193 0.01356482
0003b0 7d 63 a5 3b b4 b2 df 3b 28 be 35 3c 97 51 e8 bb
       0.0050472603 0.006826723 0.0110927 -0.0070898044
0003c0 6e aa 74 3a 7d ef e7 3b 45 5e 37 3c 11 8e 0e bc
       0.00093332573 0.00707811 0.011191909 -0.008700863
0003d0 5a 87 66 a5 ae 3e 3c 3c b6 25 82 b4 18 00 33 3c
       -1.9995179e-16 0.011489553 -2.4241825e-07 0.010925315
0003e0 cf a8 b7 3b 82 74 8a 3c 20 6c 73 33 5f 6a f4 3a
       0.0056048403 0.016901258 5.6676186e-08 0.0018647424
0003f0 48 da 48 35 dd 66 ab 39 9d 38 04 3c 6e a3 3e 3c
       7.4823447e-07 0.000326923 0.008070138 0.011635644

bn1.running_var f4 [500]
000000 90 b7 91 39 0d 15 b5 39 26 21 b4 39 b4 26 c6 39
       0.0002779332 0.00034538694 0.00034356973 0.0003779434
000010 04 00 00 00 2c 90 87 39 37 5b 12 39 69 8d 91 39
       6e-45 0.00025856623 0.00013957625 0.00027761914
000020 a0 c8 d8 39 73 c3 c5 39 61 4e 91 39 e8 20 9e 39
       0.00041348208 0.0003772039 0.00027714952 0.00030160625
000030 3d 25 00 3a 8c 02 66 26 55 3d ec 39 34 d1 ad 39
       0.00048883614 7.980073e-16 0.00045059124 0.00033153
000040 ac a9 8c 39 8c 57 8b 39 95 ad df 39 ef a5 59 39
       0.00026829296 0.00026577374 0.00042663203 0.00020756548
000050 5d 20 70 39 04 00 00 00 5b 70 e1 39 2e a3 de 39
       0.0002290024 6e-45 0.00042999056 0.00042464718
000060 2c 5b f5 39 bc 2c b5 39 7d aa 20 3a 52 14 f1 39
       0.0004679797 0.0003455634 0.00061289204 0.00045982242
000070 d1 ce a8 39 7a 85 a4 39 04 00 00 00 30 49 da 39
       0.00032197547 0.00031379965 6e-45 0.0004163473
000080 04 00 00 00 99 08 f6 39 f1 1b b2 39 ec 17 eb 39
       6e-45 0.00046927182 0.00033971624 0.00044840516
000090 03 7a 99 39 fd 90 2b 38 8e 9e 94 39 e4 7f b7 39
       0.0002927334 4.0904608e-05 0.00028346892 0.00034999766
0000a0 70 2a b8 39 a5 d6 d4 39 40 2a 49 39 47 f0 78 39
       0.00035126833 0.00040595714 0.00019184593 0.00023740633
0000b0 df 3c a5 39 dd 0f 1e 38 04 00 00 00 b5 22 e0 39
       0.00031516605 3.768491e-05 6e-45 0.00042750468
0000c0 31 b1 c0 38 04 00 00 00 04 00 00 00 92 0a ad 39
       9.188278e-05 6e-45 6e-45 0.00033005007
0000d0 05 dc f2 39 92 47 b1 39 04 00 00 00 1f 8a ff 39
       0.00046321764 0.00033813395 6e-45 0.00048740298
0000e0 96 3f 82 38 04 00 00 00 08 5f ba 39 aa c6 3c 39
       6.210727e-05 6e-45 0.00035547488 0.00018003085
0000f0 58 25 01 39 8b 85 4b 39 82 e6 00 3a 04 00 00 00
       0.0001231631 0.00019409337 0.0004917161 6e-45
000100 04 00 00 00 04 00 00 00 cb a9 04 3a da b4 93 39
       6e-45 6e-45 0.00050607015 0.0002817277
000110 1a 34 75 39 04 00 00 00 a3 4d 8c 39 04 00 00 00
       0.0002338443 6e-45 0.00026760725 6e-45
000120 3e 32 88 39 f3 54 f6 39 3c 7a f7 39 49 69 ef 39
       0.00025977375 0.00046984068 0.00047202583 0.00045664076
000130 d1 c0 07 3a be b8 83 39 9b 02 bc 39 c2 6d fc 39
       0.0005178573 0.0002512391 0.00035860096 0.00048146961
000140 d3 5c fa 39 af 9b fe 39 e8 13 05 3a 73 c5 cb 39
       0.00047752875 0.0004856265 0.00050765136 0.00038866288
000150 ba 71 0e 39 12 8e cf 39 d7 ab ee 39 ef df a3 39
       0.00013584542 0.00039587967 0.00045522928 0.00031256626
000160 04 00 00 00 38 21 d8 39 7f 29 c4 39 f7 1c 9a 39
       6e-45 0.0004122348 0.0003741495 0.0002939475
000170 8b 58 e8 38 d0 39 c0 39 04 00 00 00 7d 7e ac 39
       0.000110791145 0.00036664167 6e-45 0.00032900638
000180 23 34 c9 39 60 64 c8 39 ae a3 2c 39 0e e2 a7 39
       0.00038376552 0.00038221758 0.00016464174 0.00032021146
000190 14 fd 07 3a 52 77 0a 3a 5f 32 43 39 45 0e 00 3a
       0.0005187553 0.00052820623 0.00018615414 0.0004884939
0001a0 f7 64 d9 39 94 49 be 39 04 00 00 00 04 00 00 00
       0.0004146469 0.00036294444 6e-45 6e-45
0001b0 11 d2 9c 39 c2 e9 b4 39 29 d5 8b 39 5a 1d 97 39
       0.0002991115 0.00034506439 0.00026670963 0.00028822833
0001c0 04 00 00 00 83 17 ce 39 4c 0e 92 39 04 00 00 00
       6e-45 0.000393089 0.00027857942 6e-45
0001d0 04 00 00 00 6b 54 bd 39 cc 70 df 39 b0 19 ad 39
       6e-45 0.00036111785 0.00042617915 0.0003301627
0001e0 04 00 00 00 e9 46 e3 38 9f 88 8b 39 04 00 00 00
       6e-45 0.000108374115 0.00026613937 6e-45
0001f0 d4 ca ea 39 4f 3e 08 3a d2 94 90 39 b5 47 90 38
       0.00044783077 0.0005197273 0.000275767 6.8798116e-05
000200 51 20 ac 38 49 b8 87 39 12 e0 99 39 72 3b c7 39
       8.2076185e-05 0.0002588651 0.0002934938 0.00038000528
000210 27 98 a9 39 ec ae f5 39 9d 75 cf 39 dd e6 32 39
       0.00032347554 0.00046860368 0.00039569745 0.00017061406
000220 6a eb 6e 39 d4 b8 b7 39 a1 d4 9a 39 f1 86 75 38
       0.00022785147 0.00035042188 0.0002953159 5.8538226e-05
000230 cf bf 85 39 05 8d bf 39 06 fd 07 39 69 6e cd 39
       0.00025510645 0.00036535427 0.00012968862 0.0003918291
000240 6c 2a ea 39 04 00 00 00 68 b3 c2 39 4d 4e d0 39
       0.00044663565 6e-45 0.00037136232 0.0003973119
000250 04 00 00 00 04 00 00 00 bf ab 8f 39 1a fa ba 39
       6e-45 6e-45 0.00027403046 0.00035663025
000260 04 00 00 00 04 00 00 00 04 00 00 00 4d 62 b3 39
       6e-45 6e-45 6e-45 0.0003421478
000270 fe 65 ef 39 b4 66 da 39 d0 06 c9 39 28 87 dd 39
       0.00045661622 0.0004165672 0.00038342783 0.00042253104
000280 dc b5 38 39 1e c7 a2 39 41 e2 dc 39 79 16 d9 39
       0.00017615355 0.00031047402 0.00042130242 0.0004140621
000290 04 00 00 00 95 71 d6 39 ad 3c 7f 39 41 1d 93 39
       6e-45 0.00040901886 0.00024341299 0.0002805982
0002a0 04 00 00 00 04 00 00 00 85 b9 bc 39 38 57 a2 39
       6e-45 6e-45 0.00035996377 0.0003096403
0002b0 04 00 00 00 68 a6 a6 39 92 e2 b6 39 75 28 ce 39
       6e-45 0.0003178597 0.00034882553 0.00039321525
0002c0 1b 42 b6 39 05 0d a8 39 04 00 00 00 a5 a8 c6 39
       0.00034762998 0.00032053157 6e-45 0.00037891153
0002d0 79 08 cb 39 a1 f5 bb 39 4b 4c d3 39 c2 f2 78 39
       0.0003872549 0.00035850427 0.000403019 0.00023741557
0002e0 04 00 00 00 04 00 00 00 9c 33 b3 39 04 00 00 00
       6e-45 6e-45 0.00034179993 6e-45
0002f0 3f 7c e5 39 42 17 d4 39 09 e9 1b 39 39 9a bd 39
       0.00043770854 0.0004045312 0.00014868764 0.00036163794
000300 04 00 00 00 2c 18 92 39 04 00 00 00 02 d4 f6 39
       6e-45 0.000278653 6e-45 0.00047078734
000310 04 00 00 00 6b bc cf 39 0d 6c e4 39 c5 04 b4 39
       6e-45 0.000396225 0.00043568053 0.0003433583
000320 fe 47 b1 39 ef a4 45 39 29 3c b7 39 d5 64 52 11
       0.0003381371 0.00018848827 0.00034949303 1.659715e-28
000330 58 df 8e 39 89 5b 49 39 2d f4 b7 39 4b 63 3b 29
       0.00027250755 0.00019202953 0.00035086405 4.1608464e-14
000340 6f bf a6 39 61 64 40 39 6d ec 4d 38 12 71 cd 39
       0.00031804616 0.00018347941 4.9095997e-05 0.0003918489
000350 04 00 00 00 04 00 00 00 c8 fc f3 39 a1 b0 a1 39
       6e-45 6e-45 0.00046536908 0.00030839912
000360 19 70 dc 39 04 00 00 00 a1 f4 f5 39 30 6a cc 39
       0.0004204519 6e-45 0.00046912304 0.00038989028
000370 20 6a 26 3a 26 11 c5 39 fd 2f d8 39 4b af 0f 3a
       0.00063482113 0.00037587545 0.00041234485 0.0005481138
000380 83 54 63 39 ad 1a 9c 39 14 a6 ff 39 02 96 8c 39
       0.0002167989 0.00029774514 0.00048761128 0.00026814645
000390 b3 ab bd 39 5c 3e 53 39 04 00 00 00 04 00 00 00
       0.00036176815 0.00020145759 6e-45 6e-45
0003a0 c7 f6 99 39 7d c7 c0 39 74 44 5b 38 be 55 d3 39
       0.00029366298 0.00036769724 5.227742e-05 0.0004030894
0003b0 d7 f6 b5 39 e2 bd c3 39 4d c8 d1 39 79 02 aa 39
       0.0003470692 0.00037334772 0.00040012822 0.0003242677
0003c0 0a 7d 05 3a fa d5 a8 39 70 c8 85 39 ce 17 d8 39
       0.00050921796 0.00032202882 0.00025517074 0.00041216466
0003d0 04 00 00 00 10 8e 8e 39 04 00 00 00 05 c4 75 39
       6e-45 0.00027190195 6e-45 0.00023438044
0003e0 05 41 3d 39 97 74 d9 39 04 00 00 00 b7 17 a9 39
       0.00018048666 0.00041476332 6e-45 0.0003225186
0003f0 04 00 00 00 b9 e6 bd 37 bc 41 1a 39 d1 4d 6b 39
       6e-45 2.2637994e-05 0.00014711072 0.00022440335
