python/models/loan_fnn_model.pth (torch, 17364 bytes, 7 tensors)

fc1.weight f4 [64, 13]
0	0x3e4095fd	0.18807216
1	0x3e6f81a5	0.23389299
2	0x3d6912f1	0.05690283
3	0x3c7b7070	0.015346631
4	0xbde079d9	-0.109607406
5	0x3cf7f6b7	0.03026901
6	0xbd68ec4a	-0.056865968
7	0x3e85cb9a	0.26131898
8	0xbded1769	-0.11576731
9	0xbc7bbe89	-0.015365251
10	0x3d60662b	0.054784935
11	0xbd95cdf0	-0.0731467
12	0xbd0ec51f	-0.034855958
13	0xbd0cc947	-0.03437164
14	0xbcc2f098	-0.023796365
15	0xbcced54b	-0.02524819
16	0x3ad2980e	0.0016067044
17	0x3c6f4f8e	0.01460637
18	0xb9a200ba	-0.0003089959
19	0x3c1a2e7d	0.009410498
20	0x3cbd0c00	0.023077011
21	0x3cee887f	0.02911782
22	0xb9145337	-0.0001414538
23	0xbbbdcadc	-0.005792005
24	0x3cdd3a17	0.027005238
25	0x3d05443b	0.032535773
26	0x20b93f78	3.138222e-19
27	0xa148c23b	-6.80197e-19
28	0x21173a62	5.123806e-19
29	0x1f29c402	3.5949276e-20
30	0x2022061f	1.3723959e-19
31	0x1e14a764	7.86967e-21
32	0x2080a762	2.1794808e-19
33	0xa0e8f81f	-3.9466522e-19
34	0xa0646320	-1.9345149e-19
35	0x20885c85	2.310052e-19
36	0x1f13135a	3.1144468e-20
37	0xa0ac2c1a	-2.9167117e-19
38	0x9ffc0140	-1.0672822e-19
39	0xb80cf498	-3.3606397e-05
40	0xb8c47a5a	-9.368798e-05
41	0xb9076eb3	-0.00012915842
42	0x39c1e99f	0.0003698589
43	0xb88dd0f8	-6.7623274e-05
44	0xb894b35d	-7.090599e-05
45	0xb89848ba	-7.261471e-05
46	0xb8df78b5	-0.00010655952
47	0x38a797d8	7.991464e-05
48	0xb8573a8e	-5.1314528e-05
49	0x38a10bd9	7.679285e-05
50	0xb8582ac2	-5.1538234e-05
51	0xb85992dd	-5.187361e-05
52	0xbe609e59	-0.21935405
53	0xbdf9d19d	-0.12198184
54	0xbd8e8125	-0.06958226
55	0xbd3e0c73	-0.04639859
56	0x3e08956d	0.13338251
57	0xbc5f2975	-0.013620724
58	0x3d83de5d	0.06438897
59	0x3e123c3e	0.14280793
60	0x3e2be613	0.16786985
61	0xbd0eac0f	-0.034832057
62	0x3da977ac	0.08274779
63	0x3dea839b	0.11450883
64	0x3e3d9b34	0.18516237
65	0xb9fc3c39	-0.00048110055
66	0xbb0db9be	-0.0021625604
67	0x3ab1a264	0.0013552424
68	0xb982d73b	-0.0002495589
69	0x3b39692e	0.0028291452
70	0x3653fb72	3.158781e-06
71	0x37c7a052	2.3797304e-05
72	0xbbc323fb	-0.005955217
73	0xb835e9fe	-4.3371685e-05
74	0xb8540583	-5.0549872e-05
75	0xb9f958ad	-0.0004755905
76	0x38ced231	9.861997e-05
77	0xb5d6e9fe	-1.6012343e-06
78	0xb1445039	-2.8567355e-09
79	0xb0e57611	-1.6695499e-09
80	0xb16c6dbc	-3.4404897e-09
81	0x3181a7b0	3.773458e-09
82	0xb099c47f	-1.1188063e-09
83	0x2e385435	4.1911547e-11
84	0x3080b4cd	9.364612e-10
85	0x30bc0ea8	1.3682966e-09
86	0xb0cc99ac	-1.488663e-09
87	0x3050ebd7	7.600511e-10
88	0xb0e77c0a	-1.6842716e-09
89	0x30ac3335	1.2529201e-09
90	0x312267ef	2.3633182e-09
91	0xa9443092	-4.356287e-14
92	0xaa3fc655	-1.7033018e-13
93	0xa4878972	-5.877976e-17
94	0x1b93648b	2.4384084e-22
95	0x295ba6b8	4.8772374e-14
96	0x84d5bb24	-5.024792e-36
97	0x0dea7c79	1.4451329e-30
98	0xa5359444	-1.5749482e-16
99	0x128d4ff3	8.91806e-28
100	0x1098f5dd	6.033224e-29
101	0x0c877f6d	2.0876735e-31
102	0x98abe713	-4.443579e-24
103	0x8df7de2b	-1.5276035e-30
104	0xb78b30c8	-1.6592807e-05
105	0x378f52d6	1.7085502e-05
106	0xb6d6a1c0	-6.396527e-06
107	0xb59e9c75	-1.1817452e-06
108	0x379ccb1c	1.869123e-05
109	0x30b6fec2	1.3314649e-09
110	0xb43bafba	-1.7479661e-07
111	0xb764b1f4	-1.3631292e-05
112	0xb48a643d	-2.5777436e-07
113	0x352f6880	6.534465e-07
114	0xb517c806	-5.6542956e-07
115	0xb47de9ee	-2.3647564e-07
116	0xb59616dc	-1.1182524e-06
117	0x3bbbc55f	0.0057303156
118	0xbb918a8a	-0.004441564
119	0x3c4d5cbb	0.012534316
120	0x3a4926f3	0.00076733454
121	0x3b8158c0	0.0039473474
122	0x38206b8b	3.824713e-05
123	0x39fe230c	0.00048472767
124	0xbbe5bc32	-0.00701096
125	0x3a13f39d	0.0005643906
126	0xb70c8e58	-8.377792e-06
127	0xbb66eacb	-0.0035235162
128	0xbad2c765	-0.0016081153
129	0x3a00a991	0.000490808
130	0xbc303655	-0.010755141
131	0xbcad84c5	-0.021181474
132	0xbc965dea	-0.018355329
133	0x3bb23126	0.005437988
134	0x3acd9a94	0.0015686327
135	0xb88c559b	-6.6916655e-05
136	0xba4fb89e	-0.00079239334
137	0xbc214635	-0.009843399
138	0x3a065ee0	0.0005125832
139	0xbb6843a5	-0.003544071
140	0xbb85bd66	-0.004081416
141	0x3bddada5	0.006765085
142	0x3b728cd9	0.0037010221
143	0xa921a299	-3.5890212e-14
144	0xaabe84c5	-3.3842907e-13
145	0xaa45fcc4	-1.758481e-13
146	0xa77444e4	-3.3899148e-15
147	0x2a033def	1.1656625e-13
148	0xa01a9ed8	-1.3096864e-19
149	0xa677c851	-8.596682e-16
150	0xa8877053	-1.5036724e-14
151	0x28412d28	1.0723444e-14
152	0xa71a6b77	-2.143005e-15
153	0x2826e47c	9.264396e-15
154	0xa7295d72	-2.3504118e-15
155	0x2880c89c	1.4297855e-14
156	0xb64e4b61	-3.0740268e-06
157	0xb6ab63c6	-5.1078123e-06
158	0xb5c19163	-1.4421934e-06
159	0xb626ea7d	-2.4872418e-06
160	0x354e1edf	7.6785904e-07
161	0x330aed49	3.234644e-08
162	0x35144f34	5.524955e-07
163	0xb6295a69	-2.5235588e-06
164	0xb3a41478	-7.6405684e-08
165	0x35347596	6.7226335e-07
166	0xb41f4f5e	-1.4836903e-07
167	0x35881efd	1.0141808e-06
168	0xb48b4ddc	-2.5947418e-07
169	0xb40481f1	-1.234073e-07
170	0x37b0c636	2.1073134e-05
171	0x369404e5	4.4113135e-06
172	0xb3a2eae1	-7.586437e-08
173	0x36fd1377	7.5422536e-06
174	0x229007cc	3.9039533e-18
175	0x30df03d9	1.6226479e-09
176	0xb72f5987	-1.04516575e-05
177	0xafcf8cc0	-3.775309e-10
178	0xb2b31539	-2.0847994e-08
179	0xb2cfb06e	-2.4178203e-08
180	0x2fc72f08	3.6231307e-10
181	0xaec5e383	-8.998937e-11
182	0xb4795a88	-2.3222867e-07
183	0xb3837fdd	-6.123421e-08
184	0xb38f722b	-6.6797234e-08
185	0xb2b8b2c7	-2.1501718e-08
186	0xb3d8368d	-1.00682065e-07
187	0xaed472a7	-9.66101e-11
188	0xb186c4ac	-3.9222723e-09
189	0x2ee2db50	1.0316248e-10
190	0xb1369a7a	-2.6572295e-09
191	0x3045f874	7.2021256e-10
192	0xb107e3f0	-1.9774653e-09
193	0xb2466c8f	-1.15498e-08
194	0xb1904fde	-4.2000314e-09
195	0x2b61fb89	8.0285133e-13
196	0xadd8f00c	-2.466296e-11
197	0xaf182748	-1.3838275e-10
198	0xab4c1683	-7.25066e-13
199	0x2da4c8f4	1.8733883e-11
200	0x19407a8c	9.9509155e-24
201	0x2899b5bc	1.7065227e-14
202	0xad17753a	-8.609386e-12
203	0xaabefdac	-3.39268e-13
204	0x2b0f5618	5.0923285e-13
205	0xa9a37eab	-7.2606275e-14
206	0xac0ab24e	-1.9709958e-12
207	0x28d00c69	2.3098021e-14
208	0x3edd6e09	0.43248013
209	0xbe3a598b	-0.1819822
210	0x3dfe420d	0.12414942
211	0x3d57264a	0.05252675
212	0xbe869d64	-0.26291955
213	0x3d0e2216	0.034700476
214	0xbb0583b1	-0.0020372684
215	0x3e5d3852	0.21603516
216	0xbd7bfca7	-0.061520245
217	0x3c9a1211	0.018807443
218	0xbdb8cdc8	-0.09023625
219	0xbd2e6455	-0.042576153
220	0xbc7e7ade	-0.0155322235
221	0x34920374	2.7197132e-07
222	0xb5b71b0d	-1.3642435e-06
223	0xb545ec37	-7.3731957e-07
224	0xb562c059	-8.4471463e-07
225	0xb3b9276c	-8.6219046e-08
226	0xaf5ec282	-2.0259885e-10
227	0xb4fe3caf	-4.735534e-07
228	0xb63af50f	-2.7858803e-06
229	0x35741aa6	9.093586e-07
230	0x342b9170	1.5978526e-07
231	0xb49f91da	-2.972218e-07
232	0xb5cec42f	-1.5405293e-06
233	0xb53c75e7	-7.020703e-07
234	0x24a509a4	7.1573675e-17
235	0xa77a1684	-3.4706675e-15
236	0xa60414ac	-4.5824715e-16
237	0xa78115b7	-3.5828236e-15
238	0x25b45309	3.128129e-16
239	0xa4f7519b	-1.0725742e-16
240	0xa6e3cfd8	-1.5807625e-15
241	0xa7c30870	-5.413252e-15
242	0xa7bccf80	-5.2405454e-15
243	0x275d951f	3.075075e-15
244	0xa6f6f424	-1.7135853e-15
245	0xa6d258eb	-1.4595778e-15
246	0xa738c8b8	-2.564394e-15
247	0xa5638f14	-1.9737588e-16
248	0xa71558b4	-2.072599e-15
249	0xa8b2416e	-1.9790345e-14
250	0xa6d8e475	-1.5049934e-15
251	0x26c127a6	1.3402812e-15
252	0xa36794f4	-1.2554077e-17
253	0x25838c75	2.2820055e-16
254	0xa77f7b2f	-3.5455137e-15
255	0xa7ec2466	-6.554262e-15

fc1.bias f4 [64]
0	0x3c25974f	0.010106876
1	0x3d3364be	0.043797247
2	0xa19d1c99	-1.0646304e-18
3	0xb9b30e2f	-0.00034152108
4	0x3eb296b6	0.34880608
5	0xbbd47aeb	-0.0064843795
6	0xafd63050	-3.89607e-10
7	0xab0679b9	-4.777529e-13
8	0xb84aea60	-4.837883e-05
9	0xbc093985	-0.00837553
10	0xbbf330c7	-0.007421586
11	0xaaafe2b7	-3.124356e-13
12	0x35cdf1c9	1.5344059e-06
13	0xb8869d8c	-6.418963e-05
14	0xb4617cea	-2.1000201e-07
15	0xafae6fcb	-3.172985e-10
16	0xbe991af7	-0.29903385
17	0xb71dae33	-9.398488e-06
18	0xa7a098e8	-4.4574702e-15
19	0xa888d950	-1.5193277e-14
20	0xb9f84145	-0.00047350876
21	0x3c125bd0	0.008933023
22	0xb9638c3f	-0.00021700653
23	0xa8846984	-1.4700704e-14
24	0xbc4c1aad	-0.012457532
25	0xb13870fc	-2.6839748e-09
26	0xb1942210	-4.3112394e-09
27	0xbb6d34a9	-0.0036194718
28	0xac63e2cc	-3.2384538e-12
29	0xb487086f	-2.5151846e-07
30	0xb8bf57da	-9.123953e-05
31	0xb582d2d5	-9.747115e-07
32	0xad65d1f9	-1.3063766e-11
33	0xb1839499	-3.8294954e-09
34	0xb461448d	-2.0979697e-07
35	0xb653722b	-3.1507905e-06
36	0xa97aaf48	-5.5663183e-14
37	0xa90f67fc	-3.184257e-14
38	0xb0ce5fbb	-1.5015681e-09
39	0xa66e6128	-8.270451e-16
40	0xb6f593cc	-7.318775e-06
41	0x2b90a174	1.0276628e-12
42	0xb0c02ee6	-1.3983168e-09
43	0x3d4cbafc	0.04998301
44	0xa914deb2	-3.305576e-14
45	0xb705347f	-7.93964e-06
46	0xb78a56ea	-1.6491354e-05
47	0x95288547	-3.4032467e-26
48	0x3e908419	0.28225783
49	0xa1a6b14a	-1.1295526e-18
50	0x9c890f10	-9.069793e-22
51	0xaaa26fca	-2.885455e-13
52	0xb8c2f1ca	-9.2956776e-05
53	0xb299c60e	-1.7901609e-08
54	0xb7507248	-1.2424374e-05
55	0x39adac6d	0.000331256
56	0xbd8527e0	-0.06501746
57	0xa2bda164	-5.139943e-18
58	0xbb9d3db9	-0.0047986177
59	0xaa57c782	-1.9165054e-13
60	0xb19b8d25	-4.52714e-09
61	0xaea190c8	-7.347151e-11
62	0xab21c1a1	-5.7467404e-13
63	0x3eb6a351	0.35671476

fc2.weight f4 [32, 64]
0	0x3e239a7e	0.15976903
1	0xb9502b59	-0.00019852574
2	0x1dec98ee	6.2626805e-21
3	0xb8017522	-3.0865085e-05
4	0xbda63346	-0.081152484
5	0x3876cb7a	5.8840473e-05
6	0x30961d42	1.0922252e-09
7	0x05f5735c	2.3082066e-35
8	0x35de58f5	1.6566179e-06
9	0xba381d87	-0.0007023443
10	0x3a2bd93c	0.0006555503
11	0xa80c0b78	-7.774048e-15
12	0xb4474345	-1.8557792e-07
13	0x308210aa	9.463481e-10
14	0x31324aca	2.5944922e-09
15	0xabb82d55	-1.3086569e-12
16	0x3e5c58b0	0.21518207
17	0x352fbf51	6.547098e-07
18	0x26a65213	1.154081e-15
19	0xa70f3e2c	-1.987894e-15
20	0x38d9eac2	0.000103910934
21	0x3c7ae5cc	0.015313577
22	0x39836190	0.00025058957
23	0x27e2e5ec	6.2976883e-15
24	0x397385d4	0.00023224141
25	0x319daea4	4.5891557e-09
26	0x0d7c00d5	7.7654497e-31
27	0x38e9f385	0.00011155665
28	0xa92b2ba4	-3.800748e-14
29	0xb33b13f6	-4.3557485e-08
30	0x3819a51f	3.6631824e-05
31	0xb3f6757c	-1.1476638e-07
32	0x2b4b1ca8	7.2159856e-13
33	0x3286c10c	1.568744e-08
34	0x32022fac	7.577835e-09
35	0x333ecd6e	4.442466e-08
36	0x28184d6b	8.454482e-15
37	0x2374b310	1.32651845e-17
38	0xaf8bd8ea	-2.543808e-10
39	0xa43fb78a	-4.1571987e-17
40	0x333ea810	4.4390674e-08
41	0x2cf7545d	7.0295284e-12
42	0x25df9898	3.8787735e-16
43	0x3e200ac3	0.15629105
44	0x1e866334	1.4228831e-20
45	0xb4c9c903	-3.7585423e-07
46	0xb512f191	-5.4740764e-07
47	0x945329dc	-1.0661033e-26
48	0xbe201d6f	-0.15636228
49	0xa01b8ddb	-1.3175947e-19
50	0x19331052	9.257379e-24
51	0xa84c7800	-1.1350296e-14
52	0xb5ff516e	-1.902268e-06
53	0xaf54a0b0	-1.9338375e-10
54	0xb51060e5	-5.378518e-07
55	0xb980a562	-0.00024537282
56	0x3d07dc6b	0.03316919
57	0x800237c5	-2.03677e-40
58	0x3b44cdcc	0.003002989
59	0xa9148246	-3.2975596e-14
60	0xb0075503	-4.9233523e-10
61	0x301050ff	5.2501997e-10
62	0xa501ff0e	-1.1275382e-16
63	0xbd7e0d8d	-0.06202464
64	0xbce4b977	-0.027920468
65	0x3c5e0332	0.0135505665
66	0x9fe5debe	-9.735377e-20
67	0x389bf4de	7.436586e-05
68	0x3dccd867	0.10002213
69	0x38b34b96	8.549464e-05
70	0x30c6472a	1.4426622e-09
71	0x960fa468	-1.1603325e-25
72	0xb5992188	-1.1409147e-06
73	0x3a9e16cc	0.0012061237
74	0x3b7ccc58	0.0038573947
75	0x28cfa2f3	2.3052285e-14
76	0x34a1ad7f	3.0114822e-07
77	0xb082f616	-9.528687e-10
78	0x322c7bf9	1.0039906e-08
79	0x2c5b30bc	3.1148825e-12
80	0xbd6e842f	-0.05823153
81	0xb52450d5	-6.1212387e-07
82	0x2478b760	5.3931752e-17
83	0x27603f5e	3.1120596e-15
84	0xb6af9708	-5.2329888e-06
85	0xbbfc8a36	-0.0077069057
86	0xb81a48b0	-3.6784157e-05
87	0x283b1e24	1.0387121e-14
88	0x391db491	0.00015039953
89	0x3113cee6	2.1508924e-09
90	0x8c013708	-9.954359e-32
91	0xb7989d3a	-1.8193026e-05
92	0xa7ca2764	-5.610897e-15
93	0x3334308d	4.1953673e-08
94	0x3895e8c8	7.1482325e-05
95	0x33de7ff5	1.0360956e-07
96	0x2c93ef80	4.204581e-12
97	0xb22d65bc	-1.0093057e-08
98	0xb14f4f68	-3.0167602e-09
99	0x340f9883	1.3373396e-07
100	0xa791acf7	-4.0433114e-15
101	0xa624b536	-5.7144517e-16
102	0x2f97eddb	2.7635746e-10
103	0xa23c0988	-2.5483797e-18
104	0xb370f256	-5.6099758e-08
105	0xabe36ba1	-1.6159193e-12
106	0x2d0c88aa	7.988424e-12
107	0xbdde9aa7	-0.10869341
108	0x9eebc40b	-2.4962674e-20
109	0xb386551c	-6.2553426e-08
110	0x353f110c	7.117785e-07
111	0x137451ca	3.0837455e-27
112	0x3e1186c3	0.14211564
113	0xa00e9df2	-1.2080128e-19
114	0x1a093283	2.837174e-23
115	0x29372819	4.0668942e-14
116	0x35b53198	1.3499985e-06
117	0x30354972	6.595179e-10
118	0x36530070	3.1441705e-06
119	0x3993be9b	0.00028180037
120	0xbc329fb2	-0.010902332
121	0x800541c1	-4.82766e-40
122	0xbaf24bb1	-0.0018485693
123	0x28d7a86a	2.3942833e-14
124	0x3068f60e	8.4750773e-10
125	0x30033483	4.7732146e-10
126	0xa56b0777	-2.038553e-16
127	0x3debdcd5	0.1151673
128	0xbccba980	-0.024861097
129	0x3c260f38	0.010135464
130	0x1f335b6a	3.798034e-20
131	0x38d5463b	0.00010169713
132	0x3dc3ec1b	0.09566518
133	0x38ae284a	8.304471e-05
134	0x3098e3c9	1.1124196e-09
135	0x1f5156ae	4.432917e-20
136	0xb4eea530	-4.4451144e-07
137	0x3a5b942f	0.0008376268
138	0x3b79bff7	0.0038108805
139	0x29052a85	2.9568812e-14
140	0xb449ccb2	-1.8794051e-07
141	0xaffb48b0	-4.5708282e-10
142	0x321e1f46	9.203921e-09
143	0x2b9786c1	1.0766597e-12
144	0xbd857528	-0.065164864
145	0xb51eaad9	-5.91082e-07
146	0x25d644a3	3.7169592e-16
147	0x27201cf2	2.2220152e-15
148	0x381d1b5e	3.7457205e-05
149	0x3973203c	0.00023186294
150	0x371ba83e	9.277892e-06
151	0x27a2cb07	4.5184155e-15
152	0xb8e40518	-0.00010872836
153	0xaffff70e	-4.6559773e-10
154	0x0de036e5	1.3818281e-30
155	0x38110f4f	3.458495e-05
156	0x2888314d	1.5120414e-14
157	0x32740896	1.42046215e-08
158	0xb8c21dde	-9.256204e-05
159	0x33585939	5.0372567e-08
160	0x2a879e00	2.4090452e-13
161	0xb1f70a18	-7.1897936e-09
162	0xb2b761ce	-2.134848e-08
163	0x3491d077	2.7160033e-07
164	0x276e28e0	3.3051293e-15
165	0xa614af56	-5.158544e-16
166	0x2f73703d	2.2140596e-10
167	0x25252da2	1.432693e-16
168	0xb1c6ef72	-5.78978e-09
169	0xac16b56a	-2.1416987e-12
170	0x2c13850d	2.0963814e-12
171	0xbdd89df2	-0.10577001
172	0x9f0c6f31	-2.973813e-20
173	0xb363c26a	-5.3029375e-08
174	0x3597c7e3	1.1308551e-06
175	0x9353d81f	-2.67385e-27
176	0x3e1319ba	0.14365283
177	0x9fff0196	-1.07999324e-19
178	0x9aabc8e6	-7.104851e-23
179	0x29b6b11c	8.113147e-14
180	0x35801b97	9.544773e-07
181	0x30a49d51	1.1977282e-09
182	0x363811f8	2.7428596e-06
183	0x3989cabe	0.0002628173
184	0xbc649e58	-0.013953768
185	0x004e01d4	7.163825e-39
186	0xbac5f6a3	-0.0015103411
187	0x28f77f0c	2.7477607e-14
188	0x3027f940	6.110845e-10
189	0x3024abf8	5.9907235e-10
190	0xa3514b9c	-1.1345924e-17
191	0x3de766bf	0.11298894
192	0xbcf87439	-0.030328857
193	0x3be7ebe3	0.0070776804
194	0xa01834f7	-1.2892425e-19
195	0x347b9500	2.3430403e-07
196	0x3dcc6c67	0.099816136
197	0x3894e588	7.0999435e-05
198	0x31451d97	2.8684093e-09
199	0x16d08462	3.3687758e-25
200	0x3201b2e4	7.549463e-09
201	0x3a3daba6	0.00072353554
202	0x3976fa73	0.00023553688
203	0x287900f9	1.38224876e-14
204	0xb4b680f9	-3.3993982e-07
205	0xb1a32b52	-4.7488493e-09
206	0xb1572cac	-3.131201e-09
207	0x2c1053d7	2.0510171e-12
208	0xbd991827	-0.0747531
209	0xb57092e6	-8.962073e-07
210	0x26e8723d	1.6129198e-15
211	0x27a5bb18	4.5999547e-15
212	0xb66a1574	-3.4881205e-06
213	0xbc13f5ba	-0.009030754
214	0xb5b26314	-1.3290869e-06
215	0x2843af48	1.08626826e-14
216	0x3a5b7cfb	0.00083728106
217	0x30c52466	1.4343982e-09
218	0x0c98238d	2.3440704e-31
219	0x38c98063	9.608341e-05
220	0xa710500a	-2.0027404e-15
221	0x3366f938	5.377771e-08
222	0x37f3a84b	2.9046225e-05
223	0x326ca0db	1.3773582e-08
224	0xac8b8379	-3.965214e-12
225	0x315e730d	3.237065e-09
226	0xb2891adc	-1.5961113e-08
227	0x33358c38	4.2269875e-08
228	0x28f374b4	2.7029031e-14
229	0xa5e79ea8	-4.0179622e-16
230	0x2e09fffa	3.1377546e-11
231	0xa53b05fc	-1.6221692e-16
232	0x31418fd2	2.8166949e-09
233	0xac50e8f0	-2.9687884e-12
234	0x2cea9c3c	6.6680255e-12
235	0xbdd31f80	-0.103087425
236	0x9f36ec0d	-3.8735256e-20
237	0xb4608bc5	-2.0912474e-07
238	0x349d6a40	2.9320836e-07
239	0x946941b6	-1.1776453e-26
240	0x3e2d9669	0.16951908
241	0x9f930d14	-6.227856e-20
242	0x1ac91c9b	8.3177866e-23
243	0x29878403	6.018105e-14
244	0x35602db5	8.3513015e-07
245	0x307685b6	8.9684293e-10
246	0xb591ea8a	-1.0871602e-06
247	0x37b3fd1e	2.145633e-05
248	0xbc86565e	-0.016398605
249	0x80316948	-4.537707e-39
250	0x3a4b463a	0.00077543
251	0x281e57bc	8.789786e-15
252	0x2e816c62	5.8854935e-11
253	0x307304cb	8.8409696e-10
254	0x254047af	1.6677633e-16
255	0x3de2fcc7	0.1108337

fc2.bias f4 [32]
0	0x3cda4113	0.026642358
1	0x3db50d70	0.088404536
2	0x3da92f83	0.08261015
3	0x3dbf242b	0.0933307
4	0x3dc65af6	0.09685318
5	0x3db7edb5	0.08980886
6	0x3c711b0d	0.014715922
7	0x3dcef903	0.10106089
8	0x3c5ae15b	0.013359393
9	0x3dbd836a	0.09253581
10	0x3dc0d74a	0.09416063
11	0x3d047b77	0.032344308
12	0x3dc6fa73	0.09715738
13	0x3dcd97df	0.10038733
14	0x3db05452	0.08609833
15	0x3da99edf	0.082822554
16	0x3dc3b53a	0.095560506
17	0x3dbaf7b8	0.0912928
18	0x3dca2610	0.09870541
19	0x3dcd5d65	0.10027579
20	0x3daed7b1	0.085372336
21	0x3c21f61d	0.009885338
22	0x3dbf33da	0.09336062
23	0x3dca393c	0.09874198
24	0x3c711401	0.014714242
25	0x39cd0241	0.00039102326
26	0x3db9cd23	0.0907233
27	0x3d9ca333	0.07648315
28	0x3d9f6aaa	0.077840164
29	0x3dd31fe6	0.103088185
30	0x3db4dec6	0.08831553
31	0x3abee8e1	0.0014565253

fc3.weight f4 [16, 32]
0	0xbd9cfb26	-0.0766509
1	0x3dd122b2	0.10211696
2	0x3dcb9623	0.09940746
3	0x3dd3ce02	0.10342027
4	0x3e01359a	0.12618104
5	0x3dc1f6d1	0.094709046
6	0xbd8ea0a2	-0.06964232
7	0x3df93bf8	0.12169641
8	0xbd839f45	-0.064268626
9	0x3ddd3eb5	0.10802976
10	0x3deeba10	0.11656582
11	0xbdaba9e2	-0.08382012
12	0x3de1a41d	0.1101763
13	0x3e009cb9	0.12559785
14	0x3dde0b1e	0.10841964
15	0x3dc4d704	0.096113235
16	0x3e009f6d	0.12560816
17	0x3de78b1a	0.113058284
18	0x3df7d8a6	0.12101869
19	0x3df57dc7	0.11986881
20	0x3dc91fb1	0.09820498
21	0xbd864f65	-0.06558112
22	0x3df9c43d	0.121956326
23	0x3e02f8ea	0.12790266
24	0xbd82da56	-0.063893005
25	0xbd865ee8	-0.06561071
26	0x3dde9a85	0.10869316
27	0x3db2b050	0.08725035
28	0x3db1f1b4	0.08688679
29	0x3df09183	0.11746504
30	0x3dc5c773	0.096571825
31	0xbd792c14	-0.06083305
32	0x800081bf	-4.6544e-41
33	0x80003a7a	-2.0977e-41
34	0x80001ad2	-9.621e-42
35	0x80002af7	-1.5413e-41
36	0x800041ab	-2.3557e-41
37	0x00000f21	5.427e-42
38	0x800067a0	-3.7174e-41
39	0x00000f8d	5.579e-42
40	0x00007e60	4.5335e-41
41	0x80003f08	-2.2611e-41
42	0x80000f98	-5.594e-42
43	0x00009ebf	5.6947e-41
44	0x000002ac	9.58e-43
45	0x800042ef	-2.4011e-41
46	0x00009206	5.2383e-41
47	0x00003ec7	2.252e-41
48	0x80001990	-9.17e-42
49	0x00005b67	3.2789e-41
50	0x8000321f	-1.798e-41
51	0x000022af	1.2442e-41
52	0x000030b4	1.7471e-41
53	0x00001bf9	1.0035e-41
54	0x000018bc	8.873e-42
55	0x8000aff9	-6.3127e-41
56	0x80000f41	-5.472e-42
57	0x00007256	4.1016e-41
58	0x80004eba	-2.8242e-41
59	0x800092ef	-5.271e-41
60	0x800024db	-1.3221e-41
61	0x800061ac	-3.5038e-41
62	0x8000506f	-2.8854e-41
63	0x00001735	8.325e-42
64	0x000004c5	1.711e-42
65	0x800010d1	-6.033e-42
66	0x00001409	7.187e-42
67	0x000064cf	3.6163e-41
68	0x8000593d	-3.2013e-41
69	0x80001165	-6.24e-42
70	0x80005d36	-3.3438e-41
71	0x00006bce	3.8673e-41
72	0x0000b1fd	6.385e-41
73	0x80005bc8	-3.2925e-41
74	0x80006f54	-3.9937e-41
75	0x80007a70	-4.3922e-41
76	0x00004c5c	2.7393e-41
77	0x0000588e	3.1767e-41
78	0x000076c8	4.261e-41
79	0x000024a9	1.3151e-41
80	0x000080b1	4.6166e-41
81	0x8000c0af	-6.9122e-41
82	0x8000909e	-5.1879e-41
83	0x00009fff	5.7396e-41
84	0x00000ce2	4.621e-42
85	0x80005cf2	-3.3342e-41
86	0x00000aef	3.922e-42
87	0x00003592	1.9217e-41
88	0x8000bac0	-6.6993e-41
89	0x00001991	9.171e-42
90	0x00000015	3e-44
91	0x80008768	-4.8575e-41
92	0x80005d6b	-3.3512e-41
93	0x800079f4	-4.3749e-41
94	0x8000b483	-6.4755e-41
95	0x80003a17	-2.0839e-41
96	0x00015bcd	1.24767e-40
97	0x80007b2c	-4.4186e-41
98	0x0000aefa	6.277e-41
99	0x000022d4	1.2494e-41
100	0x000083b0	4.724e-41
101	0x00008563	4.785e-41
102	0x00008d04	5.0587e-41
103	0x8000b559	-6.5055e-41
104	0x8001b8a2	-1.58069e-40
105	0x0000b197	6.3707e-41
106	0x800002df	-1.03e-42
107	0x8006141d	-5.58228e-40
108	0x80001d84	-1.0588e-41
109	0x80008941	-4.9237e-41
110	0x8000ab33	-6.1415e-41
111	0x0002654e	2.20012e-40
112	0x00008f8e	5.1498e-41
113	0x000075c0	4.2241e-41
114	0x0000fc08	9.0412e-41
115	0x00005535	3.0567e-41
116	0x80006d22	-3.915e-41
117	0x0000427b	2.3849e-41
118	0x80001015	-5.769e-42
119	0x00000b06	3.954e-42
120	0x00003777	1.9897e-41
121	0x00007825	4.31e-41
122	0x00008278	4.6803e-41
123	0x00009007	5.1667e-41
124	0x80009c6c	-5.6114e-41
125	0x800b2aba	-1.025518e-39
126	0x8000d224	-7.5384e-41
127	0x80000842	-2.962e-42
128	0x00002c9a	1.6e-41
129	0x80002f0b	-1.6876e-41
130	0x80007871	-4.3206e-41
131	0x000007c0	2.78e-42
132	0x80008734	-4.8502e-41
133	0x80001435	-7.249e-42
134	0x80000a51	-3.701e-42
135	0x8000194e	-9.078e-42
136	0x00004e34	2.8054e-41
137	0x800026d1	-1.3925e-41
138	0x800017d8	-8.554e-42
139	0x00008452	4.7468e-41
140	0x800071ab	-4.0776e-41
141	0x00001e2f	1.0828e-41
142	0x800040a6	-2.3191e-41
143	0x800023a4	-1.2785e-41
144	0x00003153	1.7694e-41
145	0x80005ec8	-3.4001e-41
146	0x80008bfc	-5.0217e-41
147	0x80002528	-1.3329e-41
148	0x80000772	-2.671e-42
149	0x0000543f	3.0222e-41
150	0x80004b02	-2.6908e-41
151	0x8000415f	-2.3451e-41
152	0x00005ae5	3.2607e-41
153	0x00005129	2.9115e-41
154	0x80002c9f	-1.6007e-41
155	0x80008cd3	-5.0518e-41
156	0x80004597	-2.4964e-41
157	0x80001d71	-1.0562e-41
158	0x00002aea	1.5395e-41
159	0x8000298e	-1.4907e-41
160	0xbda265ff	-0.079296105
161	0x3ddab6aa	0.10679372
162	0x3dd586ba	0.10426088
163	0x3dde8e3b	0.10866972
164	0x3e069a64	0.13144833
165	0x3dcb4443	0.09925129
166	0xbd95561d	-0.072918154
167	0x3e01f3c3	0.12690644
168	0xbd8a04aa	-0.06739171
169	0x3de6c3ef	0.1126784
170	0x3df862f9	0.121282525
171	0xbdb22db4	-0.087001234
172	0x3dec222b	0.115299545
173	0x3e060fe0	0.13091993
174	0x3de93254	0.113865525
175	0x3dcf7660	0.1013
176	0x3e05cfce	0.13067552
177	0x3df1af62	0.1180103
178	0x3e013d25	0.12620981
179	0x3e0018d2	0.12509468
180	0x3dd2ea1e	0.102985606
181	0xbd8c6dbe	-0.06856869
182	0x3e01d6db	0.12679617
183	0x3e085fbf	0.13317774
184	0xbd8855b7	-0.06656974
185	0xbd8cde07	-0.06878286
186	0x3de8651d	0.11347411
187	0x3dbb4204	0.09143451
188	0x3dbb6396	0.09149854
189	0x3dfbd540	0.122965336
190	0x3dd00186	0.101565406
191	0xbd825690	-0.06364167
192	0x00004779	2.564e-41
193	0x000039d0	2.0739e-41
194	0x0000270b	1.4006e-41
195	0x80008ece	-5.1229e-41
196	0x00009053	5.1774e-41
197	0x00000668	2.298e-42
198	0x80006761	-3.7085e-41
199	0x8000705b	-4.0306e-41
200	0x800076e8	-4.2656e-41
201	0x800009da	-3.534e-42
202	0x00001586	7.721e-42
203	0x00005aaf	3.2531e-41
204	0x00003c46	2.1622e-41
205	0x80002f2b	-1.692e-41
206	0x0000086b	3.02e-42
207	0x0000546f	3.0289e-41
208	0x80005dd4	-3.3659e-41
209	0x80002910	-1.473e-41
210	0x80006796	-3.716e-41
211	0x80000e0c	-5.039e-42
212	0x80007aab	-4.4005e-41
213	0x0000494a	2.6291e-41
214	0x8000c0d5	-6.9175e-41
215	0x00002407	1.2924e-41
216	0x0000451b	2.479e-41
217	0x800011ab	-6.338e-42
218	0x0000408d	2.3156e-41
219	0x800007dc	-2.82e-42
220	0x000010e9	6.066e-42
221	0x80008291	-4.6838e-41
222	0x00004718	2.5504e-41
223	0x800033c9	-1.8577e-41
224	0xbd9836a5	-0.074322976
225	0x3dc96d2a	0.098352745
226	0x3dc39df2	0.0955161
227	0x3dcb29b7	0.09920066
228	0x3df9abc5	0.121909656
229	0x3dba72ed	0.091039516
230	0xbd893965	-0.067004
231	0x3df0a05c	0.11749336
232	0xbd7cca5a	-0.061716415
233	0x3dd5993f	0.1042962
234	0x3de6e489	0.11274058
235	0xbda5f34f	-0.08103048
236	0x3dd9327a	0.10605331
237	0x3df861a7	0.12128001
238	0x3dd5115b	0.10403701
239	0x3dbc5534	0.09195939
240	0x3df8d5fe	0.12150191
241	0x3ddf58e8	0.109056294
242	0x3def4394	0.116828114
243	0x3decdec0	0.11565924
244	0x3dc14c76	0.09438412
245	0xbd816087	-0.06317239
246	0x3df1b633	0.1180233
247	0x3dfd3788	0.12364107
248	0xbd7af36a	-0.061267294
249	0xbd8147d4	-0.06312528
250	0x3dd6b76d	0.104842044
251	0x3dabca2b	0.0838817
252	0x3daa68df	0.08320784
253	0x3de7972a	0.11308129
254	0x3dbd9454	0.09256807
255	0xbd6fdb03	-0.058558475

fc3.bias f4 [16]
0	0x3e4035a5	0.18770464
1	0x8000ae9a	-6.2635e-41
2	0x80008193	-4.6482e-41
3	0xad48a708	-1.1405772e-11
4	0x800078c8	-4.3328e-41
5	0x3e48ffa1	0.19628765
6	0x80008702	-4.8432e-41
7	0x3e3946c0	0.18093395
8	0x3e5b8616	0.21437868
9	0x3e2b53c9	0.1673118
10	0x00000cfe	4.661e-42
11	0x3cc7a6af	0.024371473
12	0x3e84b7db	0.2592152
13	0x3e2d61c6	0.16931829
14	0x3e7d73fd	0.24751277
15	0x3e0e8394	0.1391738

fc4.weight f4 [1, 16]
0	0xbf167524	-0.5877249
1	0x00002ab1	1.5315e-41
2	0x8000191c	-9.008e-42
3	0xb165e6e8	-3.345514e-09
4	0x8000144d	-7.283e-42
5	0xbf1d5b36	-0.614673
6	0x00009270	5.2532e-41
7	0xbf10e64d	-0.5660141
8	0x3f193fbf	0.59862894
9	0xbf05cdba	-0.5226704
10	0x80004077	-2.3126e-41
11	0xbd9919d0	-0.074756265
12	0x3f390c04	0.7228396
13	0xbf077218	-0.5290847
14	0x3f30c7f7	0.6905512
15	0xbedd8e12	-0.43272454
